{"nodes": [{"op": "null", "name": "input_1", "inputs": []}, {"op": "tvm_op", "name": "fused_layout_transform_nn_pad", "attrs": {"num_outputs": "1", "num_inputs": "1", "func_name": "fused_layout_transform_nn_pad", "flatten_data": "0"}, "inputs": [[0, 0, 0]]}, {"op": "tvm_op", "name": "fused_layout_transform_49", "attrs": {"num_outputs": "1", "num_inputs": "1", "func_name": "fused_layout_transform_49", "flatten_data": "0"}, "inputs": [[1, 0, 0]]}, {"op": "null", "name": "p0", "inputs": []}, {"op": "tvm_op", "name": "fused_cast_sum", "attrs": {"num_outputs": "1", "num_inputs": "1", "func_name": "fused_cast_sum", "flatten_data": "0"}, "inputs": [[1, 0, 0]]}, {"op": "tvm_op", "name": "fused_multiply_7", "attrs": {"num_outputs": "1", "num_inputs": "1", "func_name": "fused_multiply_7", "flatten_data": "0"}, "inputs": [[4, 0, 0]]}, {"op": "tvm_op", "name": "fused_nn_avg_pool2d_multiply", "attrs": {"num_outputs": "1", "num_inputs": "1", "func_name": "fused_nn_avg_pool2d_multiply", "flatten_data": "0"}, "inputs": [[5, 0, 0]]}, {"op": "tvm_op", "name": "fused_layout_transform_50", "attrs": {"num_outputs": "1", "num_inputs": "1", "func_name": "fused_layout_transform_50", "flatten_data": "0"}, "inputs": [[6, 0, 0]]}, {"op": "null", "name": "p1", "inputs": []}, {"op": "null", "name": "p2", "inputs": []}, {"op": "null", "name": "p3", "inputs": []}, {"op": "tvm_op", "name": "fused_nn_contrib_conv2d_NCHWc_subtract_add_cast_fixed_point_multiply_add_clip_ca_11834180753401736574__1", "attrs": {"num_outputs": "1", "num_inputs": "6", "func_name": "fused_nn_contrib_conv2d_NCHWc_subtract_add_cast_fixed_point_multiply_add_clip_ca_11834180753401736574__1", "flatten_data": "0"}, "inputs": [[2, 0, 0], [3, 0, 0], [7, 0, 0], [8, 0, 0], [9, 0, 0], [10, 0, 0]]}, {"op": "tvm_op", "name": "fused_nn_pad_11", "attrs": {"num_outputs": "1", "num_inputs": "1", "func_name": "fused_nn_pad_11", "flatten_data": "0"}, "inputs": [[11, 0, 0]]}, {"op": "null", "name": "p4", "inputs": []}, {"op": "null", "name": "p5", "inputs": []}, {"op": "null", "name": "p6", "inputs": []}, {"op": "null", "name": "p7", "inputs": []}, {"op": "null", "name": "p8", "inputs": []}, {"op": "tvm_op", "name": "fused_nn_contrib_conv2d_NCHWc_subtract_add_cast_fixed_point_multiply_add_clip_ca_11834180753401736574_", "attrs": {"num_outputs": "1", "num_inputs": "6", "func_name": "fused_nn_contrib_conv2d_NCHWc_subtract_add_cast_fixed_point_multiply_add_clip_ca_11834180753401736574_", "flatten_data": "0"}, "inputs": [[12, 0, 0], [13, 0, 0], [14, 0, 0], [15, 0, 0], [16, 0, 0], [17, 0, 0]]}, {"op": "null", "name": "p9", "inputs": []}, {"op": "tvm_op", "name": "fused_cast_layout_transform", "attrs": {"num_outputs": "1", "num_inputs": "1", "func_name": "fused_cast_layout_transform", "flatten_data": "0"}, "inputs": [[18, 0, 0]]}, {"op": "tvm_op", "name": "fused_sum_15", "attrs": {"num_outputs": "1", "num_inputs": "1", "func_name": "fused_sum_15", "flatten_data": "0"}, "inputs": [[20, 0, 0]]}, {"op": "tvm_op", "name": "fused_multiply_layout_transform", "attrs": {"num_outputs": "1", "num_inputs": "1", "func_name": "fused_multiply_layout_transform", "flatten_data": "0"}, "inputs": [[21, 0, 0]]}, {"op": "null", "name": "p10", "inputs": []}, {"op": "null", "name": "p11", "inputs": []}, {"op": "null", "name": "p12", "inputs": []}, {"op": "null", "name": "p13", "inputs": []}, {"op": "tvm_op", "name": "fused_nn_contrib_conv2d_NCHWc_subtract_add_add_cast_fixed_point_multiply_add_cli_13071055640516155715__22", "attrs": {"num_outputs": "1", "num_inputs": "7", "func_name": "fused_nn_contrib_conv2d_NCHWc_subtract_add_add_cast_fixed_point_multiply_add_cli_13071055640516155715__22", "flatten_data": "0"}, "inputs": [[18, 0, 0], [19, 0, 0], [22, 0, 0], [23, 0, 0], [24, 0, 0], [25, 0, 0], [26, 0, 0]]}, {"op": "tvm_op", "name": "fused_nn_pad_12", "attrs": {"num_outputs": "1", "num_inputs": "1", "func_name": "fused_nn_pad_12", "flatten_data": "0"}, "inputs": [[27, 0, 0]]}, {"op": "null", "name": "p14", "inputs": []}, {"op": "tvm_op", "name": "fused_cast_layout_transform_1", "attrs": {"num_outputs": "1", "num_inputs": "1", "func_name": "fused_cast_layout_transform_1", "flatten_data": "0"}, "inputs": [[28, 0, 0]]}, {"op": "tvm_op", "name": "fused_sum_16", "attrs": {"num_outputs": "1", "num_inputs": "1", "func_name": "fused_sum_16", "flatten_data": "0"}, "inputs": [[30, 0, 0]]}, {"op": "tvm_op", "name": "fused_multiply_8", "attrs": {"num_outputs": "1", "num_inputs": "1", "func_name": "fused_multiply_8", "flatten_data": "0"}, "inputs": [[31, 0, 0]]}, {"op": "tvm_op", "name": "fused_nn_avg_pool2d_multiply_1", "attrs": {"num_outputs": "1", "num_inputs": "1", "func_name": "fused_nn_avg_pool2d_multiply_1", "flatten_data": "0"}, "inputs": [[32, 0, 0]]}, {"op": "tvm_op", "name": "fused_layout_transform_51", "attrs": {"num_outputs": "1", "num_inputs": "1", "func_name": "fused_layout_transform_51", "flatten_data": "0"}, "inputs": [[33, 0, 0]]}, {"op": "null", "name": "p15", "inputs": []}, {"op": "null", "name": "p16", "inputs": []}, {"op": "null", "name": "p17", "inputs": []}, {"op": "null", "name": "p18", "inputs": []}, {"op": "tvm_op", "name": "fused_cast_subtract_fixed_point_multiply_add_nn_contrib_conv2d_NCHWc_subtract_ad_13352175223490720149__22", "attrs": {"num_outputs": "1", "num_inputs": "8", "func_name": "fused_cast_subtract_fixed_point_multiply_add_nn_contrib_conv2d_NCHWc_subtract_ad_13352175223490720149__22", "flatten_data": "0"}, "inputs": [[18, 0, 0], [28, 0, 0], [29, 0, 0], [34, 0, 0], [35, 0, 0], [36, 0, 0], [37, 0, 0], [38, 0, 0]]}, {"op": "tvm_op", "name": "fused_nn_pad_10", "attrs": {"num_outputs": "1", "num_inputs": "1", "func_name": "fused_nn_pad_10", "flatten_data": "0"}, "inputs": [[39, 0, 0]]}, {"op": "null", "name": "p19", "inputs": []}, {"op": "tvm_op", "name": "fused_cast_layout_transform_2", "attrs": {"num_outputs": "1", "num_inputs": "1", "func_name": "fused_cast_layout_transform_2", "flatten_data": "0"}, "inputs": [[40, 0, 0]]}, {"op": "tvm_op", "name": "fused_sum_17", "attrs": {"num_outputs": "1", "num_inputs": "1", "func_name": "fused_sum_17", "flatten_data": "0"}, "inputs": [[42, 0, 0]]}, {"op": "tvm_op", "name": "fused_multiply_9", "attrs": {"num_outputs": "1", "num_inputs": "1", "func_name": "fused_multiply_9", "flatten_data": "0"}, "inputs": [[43, 0, 0]]}, {"op": "tvm_op", "name": "fused_nn_avg_pool2d_multiply_2", "attrs": {"num_outputs": "1", "num_inputs": "1", "func_name": "fused_nn_avg_pool2d_multiply_2", "flatten_data": "0"}, "inputs": [[44, 0, 0]]}, {"op": "tvm_op", "name": "fused_layout_transform_52", "attrs": {"num_outputs": "1", "num_inputs": "1", "func_name": "fused_layout_transform_52", "flatten_data": "0"}, "inputs": [[45, 0, 0]]}, {"op": "null", "name": "p20", "inputs": []}, {"op": "null", "name": "p21", "inputs": []}, {"op": "null", "name": "p22", "inputs": []}, {"op": "null", "name": "p23", "inputs": []}, {"op": "tvm_op", "name": "fused_nn_contrib_conv2d_NCHWc_subtract_add_add_cast_fixed_point_multiply_add_cli_13071055640516155715__21", "attrs": {"num_outputs": "1", "num_inputs": "7", "func_name": "fused_nn_contrib_conv2d_NCHWc_subtract_add_add_cast_fixed_point_multiply_add_cli_13071055640516155715__21", "flatten_data": "0"}, "inputs": [[40, 0, 0], [41, 0, 0], [46, 0, 0], [47, 0, 0], [48, 0, 0], [49, 0, 0], [50, 0, 0]]}, {"op": "null", "name": "p24", "inputs": []}, {"op": "tvm_op", "name": "fused_cast_layout_transform_3", "attrs": {"num_outputs": "1", "num_inputs": "1", "func_name": "fused_cast_layout_transform_3", "flatten_data": "0"}, "inputs": [[51, 0, 0]]}, {"op": "tvm_op", "name": "fused_sum_18", "attrs": {"num_outputs": "1", "num_inputs": "1", "func_name": "fused_sum_18", "flatten_data": "0"}, "inputs": [[53, 0, 0]]}, {"op": "tvm_op", "name": "fused_multiply_layout_transform_1", "attrs": {"num_outputs": "1", "num_inputs": "1", "func_name": "fused_multiply_layout_transform_1", "flatten_data": "0"}, "inputs": [[54, 0, 0]]}, {"op": "null", "name": "p25", "inputs": []}, {"op": "null", "name": "p26", "inputs": []}, {"op": "null", "name": "p27", "inputs": []}, {"op": "null", "name": "p28", "inputs": []}, {"op": "tvm_op", "name": "fused_nn_contrib_conv2d_NCHWc_subtract_add_add_cast_fixed_point_multiply_add_cli_13071055640516155715__23", "attrs": {"num_outputs": "1", "num_inputs": "7", "func_name": "fused_nn_contrib_conv2d_NCHWc_subtract_add_add_cast_fixed_point_multiply_add_cli_13071055640516155715__23", "flatten_data": "0"}, "inputs": [[51, 0, 0], [52, 0, 0], [55, 0, 0], [56, 0, 0], [57, 0, 0], [58, 0, 0], [59, 0, 0]]}, {"op": "tvm_op", "name": "fused_nn_pad_13", "attrs": {"num_outputs": "1", "num_inputs": "1", "func_name": "fused_nn_pad_13", "flatten_data": "0"}, "inputs": [[60, 0, 0]]}, {"op": "null", "name": "p29", "inputs": []}, {"op": "tvm_op", "name": "fused_cast_layout_transform_4", "attrs": {"num_outputs": "1", "num_inputs": "1", "func_name": "fused_cast_layout_transform_4", "flatten_data": "0"}, "inputs": [[61, 0, 0]]}, {"op": "tvm_op", "name": "fused_sum_19", "attrs": {"num_outputs": "1", "num_inputs": "1", "func_name": "fused_sum_19", "flatten_data": "0"}, "inputs": [[63, 0, 0]]}, {"op": "tvm_op", "name": "fused_multiply_10", "attrs": {"num_outputs": "1", "num_inputs": "1", "func_name": "fused_multiply_10", "flatten_data": "0"}, "inputs": [[64, 0, 0]]}, {"op": "tvm_op", "name": "fused_nn_avg_pool2d_multiply_3", "attrs": {"num_outputs": "1", "num_inputs": "1", "func_name": "fused_nn_avg_pool2d_multiply_3", "flatten_data": "0"}, "inputs": [[65, 0, 0]]}, {"op": "tvm_op", "name": "fused_layout_transform_521", "attrs": {"num_outputs": "1", "num_inputs": "1", "func_name": "fused_layout_transform_52", "flatten_data": "0"}, "inputs": [[66, 0, 0]]}, {"op": "null", "name": "p30", "inputs": []}, {"op": "null", "name": "p31", "inputs": []}, {"op": "null", "name": "p32", "inputs": []}, {"op": "null", "name": "p33", "inputs": []}, {"op": "tvm_op", "name": "fused_cast_subtract_fixed_point_multiply_add_nn_contrib_conv2d_NCHWc_subtract_ad_13352175223490720149__21", "attrs": {"num_outputs": "1", "num_inputs": "8", "func_name": "fused_cast_subtract_fixed_point_multiply_add_nn_contrib_conv2d_NCHWc_subtract_ad_13352175223490720149__21", "flatten_data": "0"}, "inputs": [[51, 0, 0], [61, 0, 0], [62, 0, 0], [67, 0, 0], [68, 0, 0], [69, 0, 0], [70, 0, 0], [71, 0, 0]]}, {"op": "null", "name": "p34", "inputs": []}, {"op": "tvm_op", "name": "fused_cast_layout_transform_31", "attrs": {"num_outputs": "1", "num_inputs": "1", "func_name": "fused_cast_layout_transform_3", "flatten_data": "0"}, "inputs": [[72, 0, 0]]}, {"op": "tvm_op", "name": "fused_sum_181", "attrs": {"num_outputs": "1", "num_inputs": "1", "func_name": "fused_sum_18", "flatten_data": "0"}, "inputs": [[74, 0, 0]]}, {"op": "tvm_op", "name": "fused_multiply_layout_transform_2", "attrs": {"num_outputs": "1", "num_inputs": "1", "func_name": "fused_multiply_layout_transform_2", "flatten_data": "0"}, "inputs": [[75, 0, 0]]}, {"op": "null", "name": "p35", "inputs": []}, {"op": "null", "name": "p36", "inputs": []}, {"op": "null", "name": "p37", "inputs": []}, {"op": "null", "name": "p38", "inputs": []}, {"op": "tvm_op", "name": "fused_nn_contrib_conv2d_NCHWc_subtract_add_add_cast_fixed_point_multiply_add_cli_13071055640516155715__24", "attrs": {"num_outputs": "1", "num_inputs": "7", "func_name": "fused_nn_contrib_conv2d_NCHWc_subtract_add_add_cast_fixed_point_multiply_add_cli_13071055640516155715__24", "flatten_data": "0"}, "inputs": [[72, 0, 0], [73, 0, 0], [76, 0, 0], [77, 0, 0], [78, 0, 0], [79, 0, 0], [80, 0, 0]]}, {"op": "tvm_op", "name": "fused_nn_pad_14", "attrs": {"num_outputs": "1", "num_inputs": "1", "func_name": "fused_nn_pad_14", "flatten_data": "0"}, "inputs": [[81, 0, 0]]}, {"op": "null", "name": "p39", "inputs": []}, {"op": "tvm_op", "name": "fused_cast_layout_transform_41", "attrs": {"num_outputs": "1", "num_inputs": "1", "func_name": "fused_cast_layout_transform_4", "flatten_data": "0"}, "inputs": [[82, 0, 0]]}, {"op": "tvm_op", "name": "fused_sum_191", "attrs": {"num_outputs": "1", "num_inputs": "1", "func_name": "fused_sum_19", "flatten_data": "0"}, "inputs": [[84, 0, 0]]}, {"op": "tvm_op", "name": "fused_multiply_101", "attrs": {"num_outputs": "1", "num_inputs": "1", "func_name": "fused_multiply_10", "flatten_data": "0"}, "inputs": [[85, 0, 0]]}, {"op": "tvm_op", "name": "fused_nn_avg_pool2d_multiply_4", "attrs": {"num_outputs": "1", "num_inputs": "1", "func_name": "fused_nn_avg_pool2d_multiply_4", "flatten_data": "0"}, "inputs": [[86, 0, 0]]}, {"op": "tvm_op", "name": "fused_layout_transform_522", "attrs": {"num_outputs": "1", "num_inputs": "1", "func_name": "fused_layout_transform_52", "flatten_data": "0"}, "inputs": [[87, 0, 0]]}, {"op": "null", "name": "p40", "inputs": []}, {"op": "null", "name": "p41", "inputs": []}, {"op": "null", "name": "p42", "inputs": []}, {"op": "null", "name": "p43", "inputs": []}, {"op": "tvm_op", "name": "fused_cast_subtract_fixed_point_multiply_add_nn_contrib_conv2d_NCHWc_subtract_ad_13352175223490720149__20", "attrs": {"num_outputs": "1", "num_inputs": "8", "func_name": "fused_cast_subtract_fixed_point_multiply_add_nn_contrib_conv2d_NCHWc_subtract_ad_13352175223490720149__20", "flatten_data": "0"}, "inputs": [[72, 0, 0], [82, 0, 0], [83, 0, 0], [88, 0, 0], [89, 0, 0], [90, 0, 0], [91, 0, 0], [92, 0, 0]]}, {"op": "tvm_op", "name": "fused_nn_pad_9", "attrs": {"num_outputs": "1", "num_inputs": "1", "func_name": "fused_nn_pad_9", "flatten_data": "0"}, "inputs": [[93, 0, 0]]}, {"op": "null", "name": "p44", "inputs": []}, {"op": "tvm_op", "name": "fused_cast_layout_transform_5", "attrs": {"num_outputs": "1", "num_inputs": "1", "func_name": "fused_cast_layout_transform_5", "flatten_data": "0"}, "inputs": [[94, 0, 0]]}, {"op": "tvm_op", "name": "fused_sum_20", "attrs": {"num_outputs": "1", "num_inputs": "1", "func_name": "fused_sum_20", "flatten_data": "0"}, "inputs": [[96, 0, 0]]}, {"op": "tvm_op", "name": "fused_multiply_11", "attrs": {"num_outputs": "1", "num_inputs": "1", "func_name": "fused_multiply_11", "flatten_data": "0"}, "inputs": [[97, 0, 0]]}, {"op": "tvm_op", "name": "fused_nn_avg_pool2d_multiply_5", "attrs": {"num_outputs": "1", "num_inputs": "1", "func_name": "fused_nn_avg_pool2d_multiply_5", "flatten_data": "0"}, "inputs": [[98, 0, 0]]}, {"op": "tvm_op", "name": "fused_layout_transform_53", "attrs": {"num_outputs": "1", "num_inputs": "1", "func_name": "fused_layout_transform_53", "flatten_data": "0"}, "inputs": [[99, 0, 0]]}, {"op": "null", "name": "p45", "inputs": []}, {"op": "null", "name": "p46", "inputs": []}, {"op": "null", "name": "p47", "inputs": []}, {"op": "null", "name": "p48", "inputs": []}, {"op": "tvm_op", "name": "fused_nn_contrib_conv2d_NCHWc_subtract_add_add_cast_fixed_point_multiply_add_cli_13071055640516155715__20", "attrs": {"num_outputs": "1", "num_inputs": "7", "func_name": "fused_nn_contrib_conv2d_NCHWc_subtract_add_add_cast_fixed_point_multiply_add_cli_13071055640516155715__20", "flatten_data": "0"}, "inputs": [[94, 0, 0], [95, 0, 0], [100, 0, 0], [101, 0, 0], [102, 0, 0], [103, 0, 0], [104, 0, 0]]}, {"op": "null", "name": "p49", "inputs": []}, {"op": "tvm_op", "name": "fused_cast_layout_transform_6", "attrs": {"num_outputs": "1", "num_inputs": "1", "func_name": "fused_cast_layout_transform_6", "flatten_data": "0"}, "inputs": [[105, 0, 0]]}, {"op": "tvm_op", "name": "fused_sum_21", "attrs": {"num_outputs": "1", "num_inputs": "1", "func_name": "fused_sum_21", "flatten_data": "0"}, "inputs": [[107, 0, 0]]}, {"op": "tvm_op", "name": "fused_multiply_layout_transform_3", "attrs": {"num_outputs": "1", "num_inputs": "1", "func_name": "fused_multiply_layout_transform_3", "flatten_data": "0"}, "inputs": [[108, 0, 0]]}, {"op": "null", "name": "p50", "inputs": []}, {"op": "null", "name": "p51", "inputs": []}, {"op": "null", "name": "p52", "inputs": []}, {"op": "null", "name": "p53", "inputs": []}, {"op": "tvm_op", "name": "fused_nn_contrib_conv2d_NCHWc_subtract_add_add_cast_fixed_point_multiply_add_cli_13071055640516155715__25", "attrs": {"num_outputs": "1", "num_inputs": "7", "func_name": "fused_nn_contrib_conv2d_NCHWc_subtract_add_add_cast_fixed_point_multiply_add_cli_13071055640516155715__25", "flatten_data": "0"}, "inputs": [[105, 0, 0], [106, 0, 0], [109, 0, 0], [110, 0, 0], [111, 0, 0], [112, 0, 0], [113, 0, 0]]}, {"op": "tvm_op", "name": "fused_nn_pad1", "attrs": {"num_outputs": "1", "num_inputs": "1", "func_name": "fused_nn_pad", "flatten_data": "0"}, "inputs": [[114, 0, 0]]}, {"op": "null", "name": "p54", "inputs": []}, {"op": "tvm_op", "name": "fused_cast_layout_transform_7", "attrs": {"num_outputs": "1", "num_inputs": "1", "func_name": "fused_cast_layout_transform_7", "flatten_data": "0"}, "inputs": [[115, 0, 0]]}, {"op": "tvm_op", "name": "fused_sum_22", "attrs": {"num_outputs": "1", "num_inputs": "1", "func_name": "fused_sum_22", "flatten_data": "0"}, "inputs": [[117, 0, 0]]}, {"op": "tvm_op", "name": "fused_multiply_12", "attrs": {"num_outputs": "1", "num_inputs": "1", "func_name": "fused_multiply_12", "flatten_data": "0"}, "inputs": [[118, 0, 0]]}, {"op": "tvm_op", "name": "fused_nn_avg_pool2d_multiply_6", "attrs": {"num_outputs": "1", "num_inputs": "1", "func_name": "fused_nn_avg_pool2d_multiply_6", "flatten_data": "0"}, "inputs": [[119, 0, 0]]}, {"op": "tvm_op", "name": "fused_layout_transform_531", "attrs": {"num_outputs": "1", "num_inputs": "1", "func_name": "fused_layout_transform_53", "flatten_data": "0"}, "inputs": [[120, 0, 0]]}, {"op": "null", "name": "p55", "inputs": []}, {"op": "null", "name": "p56", "inputs": []}, {"op": "null", "name": "p57", "inputs": []}, {"op": "null", "name": "p58", "inputs": []}, {"op": "tvm_op", "name": "fused_cast_subtract_fixed_point_multiply_add_nn_contrib_conv2d_NCHWc_subtract_ad_13352175223490720149__19", "attrs": {"num_outputs": "1", "num_inputs": "8", "func_name": "fused_cast_subtract_fixed_point_multiply_add_nn_contrib_conv2d_NCHWc_subtract_ad_13352175223490720149__19", "flatten_data": "0"}, "inputs": [[105, 0, 0], [115, 0, 0], [116, 0, 0], [121, 0, 0], [122, 0, 0], [123, 0, 0], [124, 0, 0], [125, 0, 0]]}, {"op": "null", "name": "p59", "inputs": []}, {"op": "tvm_op", "name": "fused_cast_layout_transform_61", "attrs": {"num_outputs": "1", "num_inputs": "1", "func_name": "fused_cast_layout_transform_6", "flatten_data": "0"}, "inputs": [[126, 0, 0]]}, {"op": "tvm_op", "name": "fused_sum_211", "attrs": {"num_outputs": "1", "num_inputs": "1", "func_name": "fused_sum_21", "flatten_data": "0"}, "inputs": [[128, 0, 0]]}, {"op": "tvm_op", "name": "fused_multiply_layout_transform_4", "attrs": {"num_outputs": "1", "num_inputs": "1", "func_name": "fused_multiply_layout_transform_4", "flatten_data": "0"}, "inputs": [[129, 0, 0]]}, {"op": "null", "name": "p60", "inputs": []}, {"op": "null", "name": "p61", "inputs": []}, {"op": "null", "name": "p62", "inputs": []}, {"op": "null", "name": "p63", "inputs": []}, {"op": "tvm_op", "name": "fused_nn_contrib_conv2d_NCHWc_subtract_add_add_cast_fixed_point_multiply_add_cli_13071055640516155715__26", "attrs": {"num_outputs": "1", "num_inputs": "7", "func_name": "fused_nn_contrib_conv2d_NCHWc_subtract_add_add_cast_fixed_point_multiply_add_cli_13071055640516155715__26", "flatten_data": "0"}, "inputs": [[126, 0, 0], [127, 0, 0], [130, 0, 0], [131, 0, 0], [132, 0, 0], [133, 0, 0], [134, 0, 0]]}, {"op": "tvm_op", "name": "fused_nn_pad_15", "attrs": {"num_outputs": "1", "num_inputs": "1", "func_name": "fused_nn_pad_15", "flatten_data": "0"}, "inputs": [[135, 0, 0]]}, {"op": "null", "name": "p64", "inputs": []}, {"op": "tvm_op", "name": "fused_cast_layout_transform_71", "attrs": {"num_outputs": "1", "num_inputs": "1", "func_name": "fused_cast_layout_transform_7", "flatten_data": "0"}, "inputs": [[136, 0, 0]]}, {"op": "tvm_op", "name": "fused_sum_221", "attrs": {"num_outputs": "1", "num_inputs": "1", "func_name": "fused_sum_22", "flatten_data": "0"}, "inputs": [[138, 0, 0]]}, {"op": "tvm_op", "name": "fused_multiply_121", "attrs": {"num_outputs": "1", "num_inputs": "1", "func_name": "fused_multiply_12", "flatten_data": "0"}, "inputs": [[139, 0, 0]]}, {"op": "tvm_op", "name": "fused_nn_avg_pool2d_multiply_7", "attrs": {"num_outputs": "1", "num_inputs": "1", "func_name": "fused_nn_avg_pool2d_multiply_7", "flatten_data": "0"}, "inputs": [[140, 0, 0]]}, {"op": "tvm_op", "name": "fused_layout_transform_532", "attrs": {"num_outputs": "1", "num_inputs": "1", "func_name": "fused_layout_transform_53", "flatten_data": "0"}, "inputs": [[141, 0, 0]]}, {"op": "null", "name": "p65", "inputs": []}, {"op": "null", "name": "p66", "inputs": []}, {"op": "null", "name": "p67", "inputs": []}, {"op": "null", "name": "p68", "inputs": []}, {"op": "tvm_op", "name": "fused_cast_subtract_fixed_point_multiply_add_nn_contrib_conv2d_NCHWc_subtract_ad_13352175223490720149__18", "attrs": {"num_outputs": "1", "num_inputs": "8", "func_name": "fused_cast_subtract_fixed_point_multiply_add_nn_contrib_conv2d_NCHWc_subtract_ad_13352175223490720149__18", "flatten_data": "0"}, "inputs": [[126, 0, 0], [136, 0, 0], [137, 0, 0], [142, 0, 0], [143, 0, 0], [144, 0, 0], [145, 0, 0], [146, 0, 0]]}, {"op": "null", "name": "p69", "inputs": []}, {"op": "tvm_op", "name": "fused_cast_layout_transform_62", "attrs": {"num_outputs": "1", "num_inputs": "1", "func_name": "fused_cast_layout_transform_6", "flatten_data": "0"}, "inputs": [[147, 0, 0]]}, {"op": "tvm_op", "name": "fused_sum_212", "attrs": {"num_outputs": "1", "num_inputs": "1", "func_name": "fused_sum_21", "flatten_data": "0"}, "inputs": [[149, 0, 0]]}, {"op": "tvm_op", "name": "fused_multiply_layout_transform_5", "attrs": {"num_outputs": "1", "num_inputs": "1", "func_name": "fused_multiply_layout_transform_5", "flatten_data": "0"}, "inputs": [[150, 0, 0]]}, {"op": "null", "name": "p70", "inputs": []}, {"op": "null", "name": "p71", "inputs": []}, {"op": "null", "name": "p72", "inputs": []}, {"op": "null", "name": "p73", "inputs": []}, {"op": "tvm_op", "name": "fused_nn_contrib_conv2d_NCHWc_subtract_add_add_cast_fixed_point_multiply_add_cli_13071055640516155715__27", "attrs": {"num_outputs": "1", "num_inputs": "7", "func_name": "fused_nn_contrib_conv2d_NCHWc_subtract_add_add_cast_fixed_point_multiply_add_cli_13071055640516155715__27", "flatten_data": "0"}, "inputs": [[147, 0, 0], [148, 0, 0], [151, 0, 0], [152, 0, 0], [153, 0, 0], [154, 0, 0], [155, 0, 0]]}, {"op": "tvm_op", "name": "fused_nn_pad_16", "attrs": {"num_outputs": "1", "num_inputs": "1", "func_name": "fused_nn_pad_16", "flatten_data": "0"}, "inputs": [[156, 0, 0]]}, {"op": "null", "name": "p74", "inputs": []}, {"op": "tvm_op", "name": "fused_cast_layout_transform_72", "attrs": {"num_outputs": "1", "num_inputs": "1", "func_name": "fused_cast_layout_transform_7", "flatten_data": "0"}, "inputs": [[157, 0, 0]]}, {"op": "tvm_op", "name": "fused_sum_222", "attrs": {"num_outputs": "1", "num_inputs": "1", "func_name": "fused_sum_22", "flatten_data": "0"}, "inputs": [[159, 0, 0]]}, {"op": "tvm_op", "name": "fused_multiply_122", "attrs": {"num_outputs": "1", "num_inputs": "1", "func_name": "fused_multiply_12", "flatten_data": "0"}, "inputs": [[160, 0, 0]]}, {"op": "tvm_op", "name": "fused_nn_avg_pool2d_multiply_8", "attrs": {"num_outputs": "1", "num_inputs": "1", "func_name": "fused_nn_avg_pool2d_multiply_8", "flatten_data": "0"}, "inputs": [[161, 0, 0]]}, {"op": "tvm_op", "name": "fused_layout_transform_533", "attrs": {"num_outputs": "1", "num_inputs": "1", "func_name": "fused_layout_transform_53", "flatten_data": "0"}, "inputs": [[162, 0, 0]]}, {"op": "null", "name": "p75", "inputs": []}, {"op": "null", "name": "p76", "inputs": []}, {"op": "null", "name": "p77", "inputs": []}, {"op": "null", "name": "p78", "inputs": []}, {"op": "tvm_op", "name": "fused_cast_subtract_fixed_point_multiply_add_nn_contrib_conv2d_NCHWc_subtract_ad_13352175223490720149__17", "attrs": {"num_outputs": "1", "num_inputs": "8", "func_name": "fused_cast_subtract_fixed_point_multiply_add_nn_contrib_conv2d_NCHWc_subtract_ad_13352175223490720149__17", "flatten_data": "0"}, "inputs": [[147, 0, 0], [157, 0, 0], [158, 0, 0], [163, 0, 0], [164, 0, 0], [165, 0, 0], [166, 0, 0], [167, 0, 0]]}, {"op": "null", "name": "p79", "inputs": []}, {"op": "tvm_op", "name": "fused_cast_layout_transform_63", "attrs": {"num_outputs": "1", "num_inputs": "1", "func_name": "fused_cast_layout_transform_6", "flatten_data": "0"}, "inputs": [[168, 0, 0]]}, {"op": "tvm_op", "name": "fused_sum_213", "attrs": {"num_outputs": "1", "num_inputs": "1", "func_name": "fused_sum_21", "flatten_data": "0"}, "inputs": [[170, 0, 0]]}, {"op": "tvm_op", "name": "fused_multiply_layout_transform_6", "attrs": {"num_outputs": "1", "num_inputs": "1", "func_name": "fused_multiply_layout_transform_6", "flatten_data": "0"}, "inputs": [[171, 0, 0]]}, {"op": "null", "name": "p80", "inputs": []}, {"op": "null", "name": "p81", "inputs": []}, {"op": "null", "name": "p82", "inputs": []}, {"op": "null", "name": "p83", "inputs": []}, {"op": "tvm_op", "name": "fused_nn_contrib_conv2d_NCHWc_subtract_add_add_cast_fixed_point_multiply_add_cli_13071055640516155715__28", "attrs": {"num_outputs": "1", "num_inputs": "7", "func_name": "fused_nn_contrib_conv2d_NCHWc_subtract_add_add_cast_fixed_point_multiply_add_cli_13071055640516155715__28", "flatten_data": "0"}, "inputs": [[168, 0, 0], [169, 0, 0], [172, 0, 0], [173, 0, 0], [174, 0, 0], [175, 0, 0], [176, 0, 0]]}, {"op": "tvm_op", "name": "fused_nn_pad_17", "attrs": {"num_outputs": "1", "num_inputs": "1", "func_name": "fused_nn_pad_17", "flatten_data": "0"}, "inputs": [[177, 0, 0]]}, {"op": "null", "name": "p84", "inputs": []}, {"op": "tvm_op", "name": "fused_cast_layout_transform_73", "attrs": {"num_outputs": "1", "num_inputs": "1", "func_name": "fused_cast_layout_transform_7", "flatten_data": "0"}, "inputs": [[178, 0, 0]]}, {"op": "tvm_op", "name": "fused_sum_223", "attrs": {"num_outputs": "1", "num_inputs": "1", "func_name": "fused_sum_22", "flatten_data": "0"}, "inputs": [[180, 0, 0]]}, {"op": "tvm_op", "name": "fused_multiply_123", "attrs": {"num_outputs": "1", "num_inputs": "1", "func_name": "fused_multiply_12", "flatten_data": "0"}, "inputs": [[181, 0, 0]]}, {"op": "tvm_op", "name": "fused_nn_avg_pool2d_multiply_9", "attrs": {"num_outputs": "1", "num_inputs": "1", "func_name": "fused_nn_avg_pool2d_multiply_9", "flatten_data": "0"}, "inputs": [[182, 0, 0]]}, {"op": "tvm_op", "name": "fused_layout_transform_534", "attrs": {"num_outputs": "1", "num_inputs": "1", "func_name": "fused_layout_transform_53", "flatten_data": "0"}, "inputs": [[183, 0, 0]]}, {"op": "null", "name": "p85", "inputs": []}, {"op": "null", "name": "p86", "inputs": []}, {"op": "null", "name": "p87", "inputs": []}, {"op": "null", "name": "p88", "inputs": []}, {"op": "tvm_op", "name": "fused_cast_subtract_fixed_point_multiply_add_nn_contrib_conv2d_NCHWc_subtract_ad_13352175223490720149__16", "attrs": {"num_outputs": "1", "num_inputs": "8", "func_name": "fused_cast_subtract_fixed_point_multiply_add_nn_contrib_conv2d_NCHWc_subtract_ad_13352175223490720149__16", "flatten_data": "0"}, "inputs": [[168, 0, 0], [178, 0, 0], [179, 0, 0], [184, 0, 0], [185, 0, 0], [186, 0, 0], [187, 0, 0], [188, 0, 0]]}, {"op": "null", "name": "p89", "inputs": []}, {"op": "tvm_op", "name": "fused_cast_layout_transform_64", "attrs": {"num_outputs": "1", "num_inputs": "1", "func_name": "fused_cast_layout_transform_6", "flatten_data": "0"}, "inputs": [[189, 0, 0]]}, {"op": "tvm_op", "name": "fused_sum_214", "attrs": {"num_outputs": "1", "num_inputs": "1", "func_name": "fused_sum_21", "flatten_data": "0"}, "inputs": [[191, 0, 0]]}, {"op": "tvm_op", "name": "fused_multiply_layout_transform_7", "attrs": {"num_outputs": "1", "num_inputs": "1", "func_name": "fused_multiply_layout_transform_7", "flatten_data": "0"}, "inputs": [[192, 0, 0]]}, {"op": "null", "name": "p90", "inputs": []}, {"op": "null", "name": "p91", "inputs": []}, {"op": "null", "name": "p92", "inputs": []}, {"op": "null", "name": "p93", "inputs": []}, {"op": "tvm_op", "name": "fused_nn_contrib_conv2d_NCHWc_subtract_add_add_cast_fixed_point_multiply_add_cli_13071055640516155715__29", "attrs": {"num_outputs": "1", "num_inputs": "7", "func_name": "fused_nn_contrib_conv2d_NCHWc_subtract_add_add_cast_fixed_point_multiply_add_cli_13071055640516155715__29", "flatten_data": "0"}, "inputs": [[189, 0, 0], [190, 0, 0], [193, 0, 0], [194, 0, 0], [195, 0, 0], [196, 0, 0], [197, 0, 0]]}, {"op": "tvm_op", "name": "fused_nn_pad_18", "attrs": {"num_outputs": "1", "num_inputs": "1", "func_name": "fused_nn_pad_18", "flatten_data": "0"}, "inputs": [[198, 0, 0]]}, {"op": "null", "name": "p94", "inputs": []}, {"op": "tvm_op", "name": "fused_cast_layout_transform_74", "attrs": {"num_outputs": "1", "num_inputs": "1", "func_name": "fused_cast_layout_transform_7", "flatten_data": "0"}, "inputs": [[199, 0, 0]]}, {"op": "tvm_op", "name": "fused_sum_224", "attrs": {"num_outputs": "1", "num_inputs": "1", "func_name": "fused_sum_22", "flatten_data": "0"}, "inputs": [[201, 0, 0]]}, {"op": "tvm_op", "name": "fused_multiply_124", "attrs": {"num_outputs": "1", "num_inputs": "1", "func_name": "fused_multiply_12", "flatten_data": "0"}, "inputs": [[202, 0, 0]]}, {"op": "tvm_op", "name": "fused_nn_avg_pool2d_multiply_10", "attrs": {"num_outputs": "1", "num_inputs": "1", "func_name": "fused_nn_avg_pool2d_multiply_10", "flatten_data": "0"}, "inputs": [[203, 0, 0]]}, {"op": "tvm_op", "name": "fused_layout_transform_535", "attrs": {"num_outputs": "1", "num_inputs": "1", "func_name": "fused_layout_transform_53", "flatten_data": "0"}, "inputs": [[204, 0, 0]]}, {"op": "null", "name": "p95", "inputs": []}, {"op": "null", "name": "p96", "inputs": []}, {"op": "null", "name": "p97", "inputs": []}, {"op": "null", "name": "p98", "inputs": []}, {"op": "tvm_op", "name": "fused_cast_subtract_fixed_point_multiply_add_nn_contrib_conv2d_NCHWc_subtract_ad_13352175223490720149__15", "attrs": {"num_outputs": "1", "num_inputs": "8", "func_name": "fused_cast_subtract_fixed_point_multiply_add_nn_contrib_conv2d_NCHWc_subtract_ad_13352175223490720149__15", "flatten_data": "0"}, "inputs": [[189, 0, 0], [199, 0, 0], [200, 0, 0], [205, 0, 0], [206, 0, 0], [207, 0, 0], [208, 0, 0], [209, 0, 0]]}, {"op": "null", "name": "p99", "inputs": []}, {"op": "tvm_op", "name": "fused_cast_layout_transform_65", "attrs": {"num_outputs": "1", "num_inputs": "1", "func_name": "fused_cast_layout_transform_6", "flatten_data": "0"}, "inputs": [[210, 0, 0]]}, {"op": "tvm_op", "name": "fused_sum_215", "attrs": {"num_outputs": "1", "num_inputs": "1", "func_name": "fused_sum_21", "flatten_data": "0"}, "inputs": [[212, 0, 0]]}, {"op": "tvm_op", "name": "fused_multiply_layout_transform_8", "attrs": {"num_outputs": "1", "num_inputs": "1", "func_name": "fused_multiply_layout_transform_8", "flatten_data": "0"}, "inputs": [[213, 0, 0]]}, {"op": "null", "name": "p100", "inputs": []}, {"op": "null", "name": "p101", "inputs": []}, {"op": "null", "name": "p102", "inputs": []}, {"op": "null", "name": "p103", "inputs": []}, {"op": "tvm_op", "name": "fused_nn_contrib_conv2d_NCHWc_subtract_add_add_cast_fixed_point_multiply_add_cli_13071055640516155715__30", "attrs": {"num_outputs": "1", "num_inputs": "7", "func_name": "fused_nn_contrib_conv2d_NCHWc_subtract_add_add_cast_fixed_point_multiply_add_cli_13071055640516155715__30", "flatten_data": "0"}, "inputs": [[210, 0, 0], [211, 0, 0], [214, 0, 0], [215, 0, 0], [216, 0, 0], [217, 0, 0], [218, 0, 0]]}, {"op": "tvm_op", "name": "fused_nn_pad_19", "attrs": {"num_outputs": "1", "num_inputs": "1", "func_name": "fused_nn_pad_19", "flatten_data": "0"}, "inputs": [[219, 0, 0]]}, {"op": "null", "name": "p104", "inputs": []}, {"op": "tvm_op", "name": "fused_cast_layout_transform_75", "attrs": {"num_outputs": "1", "num_inputs": "1", "func_name": "fused_cast_layout_transform_7", "flatten_data": "0"}, "inputs": [[220, 0, 0]]}, {"op": "tvm_op", "name": "fused_sum_225", "attrs": {"num_outputs": "1", "num_inputs": "1", "func_name": "fused_sum_22", "flatten_data": "0"}, "inputs": [[222, 0, 0]]}, {"op": "tvm_op", "name": "fused_multiply_125", "attrs": {"num_outputs": "1", "num_inputs": "1", "func_name": "fused_multiply_12", "flatten_data": "0"}, "inputs": [[223, 0, 0]]}, {"op": "tvm_op", "name": "fused_nn_avg_pool2d_multiply_11", "attrs": {"num_outputs": "1", "num_inputs": "1", "func_name": "fused_nn_avg_pool2d_multiply_11", "flatten_data": "0"}, "inputs": [[224, 0, 0]]}, {"op": "tvm_op", "name": "fused_layout_transform_536", "attrs": {"num_outputs": "1", "num_inputs": "1", "func_name": "fused_layout_transform_53", "flatten_data": "0"}, "inputs": [[225, 0, 0]]}, {"op": "null", "name": "p105", "inputs": []}, {"op": "null", "name": "p106", "inputs": []}, {"op": "null", "name": "p107", "inputs": []}, {"op": "null", "name": "p108", "inputs": []}, {"op": "tvm_op", "name": "fused_cast_subtract_fixed_point_multiply_add_nn_contrib_conv2d_NCHWc_subtract_ad_13352175223490720149__14", "attrs": {"num_outputs": "1", "num_inputs": "8", "func_name": "fused_cast_subtract_fixed_point_multiply_add_nn_contrib_conv2d_NCHWc_subtract_ad_13352175223490720149__14", "flatten_data": "0"}, "inputs": [[210, 0, 0], [220, 0, 0], [221, 0, 0], [226, 0, 0], [227, 0, 0], [228, 0, 0], [229, 0, 0], [230, 0, 0]]}, {"op": "null", "name": "p109", "inputs": []}, {"op": "tvm_op", "name": "fused_cast_layout_transform_66", "attrs": {"num_outputs": "1", "num_inputs": "1", "func_name": "fused_cast_layout_transform_6", "flatten_data": "0"}, "inputs": [[231, 0, 0]]}, {"op": "tvm_op", "name": "fused_sum_216", "attrs": {"num_outputs": "1", "num_inputs": "1", "func_name": "fused_sum_21", "flatten_data": "0"}, "inputs": [[233, 0, 0]]}, {"op": "tvm_op", "name": "fused_multiply_layout_transform_9", "attrs": {"num_outputs": "1", "num_inputs": "1", "func_name": "fused_multiply_layout_transform_9", "flatten_data": "0"}, "inputs": [[234, 0, 0]]}, {"op": "null", "name": "p110", "inputs": []}, {"op": "null", "name": "p111", "inputs": []}, {"op": "null", "name": "p112", "inputs": []}, {"op": "null", "name": "p113", "inputs": []}, {"op": "tvm_op", "name": "fused_nn_contrib_conv2d_NCHWc_subtract_add_add_cast_fixed_point_multiply_add_cli_13071055640516155715__31", "attrs": {"num_outputs": "1", "num_inputs": "7", "func_name": "fused_nn_contrib_conv2d_NCHWc_subtract_add_add_cast_fixed_point_multiply_add_cli_13071055640516155715__31", "flatten_data": "0"}, "inputs": [[231, 0, 0], [232, 0, 0], [235, 0, 0], [236, 0, 0], [237, 0, 0], [238, 0, 0], [239, 0, 0]]}, {"op": "tvm_op", "name": "fused_nn_pad_20", "attrs": {"num_outputs": "1", "num_inputs": "1", "func_name": "fused_nn_pad_20", "flatten_data": "0"}, "inputs": [[240, 0, 0]]}, {"op": "null", "name": "p114", "inputs": []}, {"op": "tvm_op", "name": "fused_cast_layout_transform_76", "attrs": {"num_outputs": "1", "num_inputs": "1", "func_name": "fused_cast_layout_transform_7", "flatten_data": "0"}, "inputs": [[241, 0, 0]]}, {"op": "tvm_op", "name": "fused_sum_226", "attrs": {"num_outputs": "1", "num_inputs": "1", "func_name": "fused_sum_22", "flatten_data": "0"}, "inputs": [[243, 0, 0]]}, {"op": "tvm_op", "name": "fused_multiply_126", "attrs": {"num_outputs": "1", "num_inputs": "1", "func_name": "fused_multiply_12", "flatten_data": "0"}, "inputs": [[244, 0, 0]]}, {"op": "tvm_op", "name": "fused_nn_avg_pool2d_multiply_12", "attrs": {"num_outputs": "1", "num_inputs": "1", "func_name": "fused_nn_avg_pool2d_multiply_12", "flatten_data": "0"}, "inputs": [[245, 0, 0]]}, {"op": "tvm_op", "name": "fused_layout_transform_537", "attrs": {"num_outputs": "1", "num_inputs": "1", "func_name": "fused_layout_transform_53", "flatten_data": "0"}, "inputs": [[246, 0, 0]]}, {"op": "null", "name": "p115", "inputs": []}, {"op": "null", "name": "p116", "inputs": []}, {"op": "null", "name": "p117", "inputs": []}, {"op": "null", "name": "p118", "inputs": []}, {"op": "tvm_op", "name": "fused_cast_subtract_fixed_point_multiply_add_nn_contrib_conv2d_NCHWc_subtract_ad_13352175223490720149__13", "attrs": {"num_outputs": "1", "num_inputs": "8", "func_name": "fused_cast_subtract_fixed_point_multiply_add_nn_contrib_conv2d_NCHWc_subtract_ad_13352175223490720149__13", "flatten_data": "0"}, "inputs": [[231, 0, 0], [241, 0, 0], [242, 0, 0], [247, 0, 0], [248, 0, 0], [249, 0, 0], [250, 0, 0], [251, 0, 0]]}, {"op": "null", "name": "p119", "inputs": []}, {"op": "tvm_op", "name": "fused_cast_layout_transform_67", "attrs": {"num_outputs": "1", "num_inputs": "1", "func_name": "fused_cast_layout_transform_6", "flatten_data": "0"}, "inputs": [[252, 0, 0]]}, {"op": "tvm_op", "name": "fused_sum_217", "attrs": {"num_outputs": "1", "num_inputs": "1", "func_name": "fused_sum_21", "flatten_data": "0"}, "inputs": [[254, 0, 0]]}, {"op": "tvm_op", "name": "fused_layout_transform_538", "attrs": {"num_outputs": "1", "num_inputs": "1", "func_name": "fused_layout_transform_53", "flatten_data": "0"}, "inputs": [[255, 0, 0]]}, {"op": "null", "name": "p120", "inputs": []}, {"op": "null", "name": "p121", "inputs": []}, {"op": "null", "name": "p122", "inputs": []}, {"op": "null", "name": "p123", "inputs": []}, {"op": "tvm_op", "name": "fused_nn_contrib_conv2d_NCHWc_subtract_add_add_cast_fixed_point_multiply_add_cli_13071055640516155715__32", "attrs": {"num_outputs": "1", "num_inputs": "7", "func_name": "fused_nn_contrib_conv2d_NCHWc_subtract_add_add_cast_fixed_point_multiply_add_cli_13071055640516155715__32", "flatten_data": "0"}, "inputs": [[252, 0, 0], [253, 0, 0], [256, 0, 0], [257, 0, 0], [258, 0, 0], [259, 0, 0], [260, 0, 0]]}, {"op": "tvm_op", "name": "fused_nn_pad_21", "attrs": {"num_outputs": "1", "num_inputs": "1", "func_name": "fused_nn_pad_21", "flatten_data": "0"}, "inputs": [[261, 0, 0]]}, {"op": "null", "name": "p124", "inputs": []}, {"op": "tvm_op", "name": "fused_cast_layout_transform_77", "attrs": {"num_outputs": "1", "num_inputs": "1", "func_name": "fused_cast_layout_transform_7", "flatten_data": "0"}, "inputs": [[262, 0, 0]]}, {"op": "tvm_op", "name": "fused_sum_227", "attrs": {"num_outputs": "1", "num_inputs": "1", "func_name": "fused_sum_22", "flatten_data": "0"}, "inputs": [[264, 0, 0]]}, {"op": "tvm_op", "name": "fused_multiply_127", "attrs": {"num_outputs": "1", "num_inputs": "1", "func_name": "fused_multiply_12", "flatten_data": "0"}, "inputs": [[265, 0, 0]]}, {"op": "tvm_op", "name": "fused_nn_avg_pool2d_multiply_13", "attrs": {"num_outputs": "1", "num_inputs": "1", "func_name": "fused_nn_avg_pool2d_multiply_13", "flatten_data": "0"}, "inputs": [[266, 0, 0]]}, {"op": "tvm_op", "name": "fused_layout_transform_539", "attrs": {"num_outputs": "1", "num_inputs": "1", "func_name": "fused_layout_transform_53", "flatten_data": "0"}, "inputs": [[267, 0, 0]]}, {"op": "null", "name": "p125", "inputs": []}, {"op": "null", "name": "p126", "inputs": []}, {"op": "null", "name": "p127", "inputs": []}, {"op": "null", "name": "p128", "inputs": []}, {"op": "tvm_op", "name": "fused_cast_subtract_fixed_point_multiply_add_nn_contrib_conv2d_NCHWc_subtract_ad_13352175223490720149__12", "attrs": {"num_outputs": "1", "num_inputs": "8", "func_name": "fused_cast_subtract_fixed_point_multiply_add_nn_contrib_conv2d_NCHWc_subtract_ad_13352175223490720149__12", "flatten_data": "0"}, "inputs": [[252, 0, 0], [262, 0, 0], [263, 0, 0], [268, 0, 0], [269, 0, 0], [270, 0, 0], [271, 0, 0], [272, 0, 0]]}, {"op": "tvm_op", "name": "fused_nn_pad_8", "attrs": {"num_outputs": "1", "num_inputs": "1", "func_name": "fused_nn_pad_8", "flatten_data": "0"}, "inputs": [[273, 0, 0]]}, {"op": "null", "name": "p129", "inputs": []}, {"op": "tvm_op", "name": "fused_cast_layout_transform_8", "attrs": {"num_outputs": "1", "num_inputs": "1", "func_name": "fused_cast_layout_transform_8", "flatten_data": "0"}, "inputs": [[274, 0, 0]]}, {"op": "tvm_op", "name": "fused_sum_23", "attrs": {"num_outputs": "1", "num_inputs": "1", "func_name": "fused_sum_23", "flatten_data": "0"}, "inputs": [[276, 0, 0]]}, {"op": "tvm_op", "name": "fused_multiply_13", "attrs": {"num_outputs": "1", "num_inputs": "1", "func_name": "fused_multiply_13", "flatten_data": "0"}, "inputs": [[277, 0, 0]]}, {"op": "tvm_op", "name": "fused_nn_avg_pool2d_multiply_14", "attrs": {"num_outputs": "1", "num_inputs": "1", "func_name": "fused_nn_avg_pool2d_multiply_14", "flatten_data": "0"}, "inputs": [[278, 0, 0]]}, {"op": "tvm_op", "name": "fused_layout_transform_54", "attrs": {"num_outputs": "1", "num_inputs": "1", "func_name": "fused_layout_transform_54", "flatten_data": "0"}, "inputs": [[279, 0, 0]]}, {"op": "null", "name": "p130", "inputs": []}, {"op": "null", "name": "p131", "inputs": []}, {"op": "null", "name": "p132", "inputs": []}, {"op": "null", "name": "p133", "inputs": []}, {"op": "tvm_op", "name": "fused_nn_contrib_conv2d_NCHWc_subtract_add_add_cast_fixed_point_multiply_add_cli_13071055640516155715__19", "attrs": {"num_outputs": "1", "num_inputs": "7", "func_name": "fused_nn_contrib_conv2d_NCHWc_subtract_add_add_cast_fixed_point_multiply_add_cli_13071055640516155715__19", "flatten_data": "0"}, "inputs": [[274, 0, 0], [275, 0, 0], [280, 0, 0], [281, 0, 0], [282, 0, 0], [283, 0, 0], [284, 0, 0]]}, {"op": "null", "name": "p134", "inputs": []}, {"op": "tvm_op", "name": "fused_cast_layout_transform_9", "attrs": {"num_outputs": "1", "num_inputs": "1", "func_name": "fused_cast_layout_transform_9", "flatten_data": "0"}, "inputs": [[285, 0, 0]]}, {"op": "tvm_op", "name": "fused_sum_24", "attrs": {"num_outputs": "1", "num_inputs": "1", "func_name": "fused_sum_24", "flatten_data": "0"}, "inputs": [[287, 0, 0]]}, {"op": "tvm_op", "name": "fused_multiply_layout_transform_10", "attrs": {"num_outputs": "1", "num_inputs": "1", "func_name": "fused_multiply_layout_transform_10", "flatten_data": "0"}, "inputs": [[288, 0, 0]]}, {"op": "null", "name": "p135", "inputs": []}, {"op": "null", "name": "p136", "inputs": []}, {"op": "null", "name": "p137", "inputs": []}, {"op": "null", "name": "p138", "inputs": []}, {"op": "tvm_op", "name": "fused_nn_contrib_conv2d_NCHWc_subtract_add_add_cast_fixed_point_multiply_add_cli_13071055640516155715__33", "attrs": {"num_outputs": "1", "num_inputs": "7", "func_name": "fused_nn_contrib_conv2d_NCHWc_subtract_add_add_cast_fixed_point_multiply_add_cli_13071055640516155715__33", "flatten_data": "0"}, "inputs": [[285, 0, 0], [286, 0, 0], [289, 0, 0], [290, 0, 0], [291, 0, 0], [292, 0, 0], [293, 0, 0]]}, {"op": "tvm_op", "name": "fused_nn_pad_22", "attrs": {"num_outputs": "1", "num_inputs": "1", "func_name": "fused_nn_pad_22", "flatten_data": "0"}, "inputs": [[294, 0, 0]]}, {"op": "null", "name": "p139", "inputs": []}, {"op": "tvm_op", "name": "fused_cast_layout_transform_10", "attrs": {"num_outputs": "1", "num_inputs": "1", "func_name": "fused_cast_layout_transform_10", "flatten_data": "0"}, "inputs": [[295, 0, 0]]}, {"op": "tvm_op", "name": "fused_sum_25", "attrs": {"num_outputs": "1", "num_inputs": "1", "func_name": "fused_sum_25", "flatten_data": "0"}, "inputs": [[297, 0, 0]]}, {"op": "tvm_op", "name": "fused_multiply_14", "attrs": {"num_outputs": "1", "num_inputs": "1", "func_name": "fused_multiply_14", "flatten_data": "0"}, "inputs": [[298, 0, 0]]}, {"op": "tvm_op", "name": "fused_nn_avg_pool2d_multiply_15", "attrs": {"num_outputs": "1", "num_inputs": "1", "func_name": "fused_nn_avg_pool2d_multiply_15", "flatten_data": "0"}, "inputs": [[299, 0, 0]]}, {"op": "tvm_op", "name": "fused_layout_transform_541", "attrs": {"num_outputs": "1", "num_inputs": "1", "func_name": "fused_layout_transform_54", "flatten_data": "0"}, "inputs": [[300, 0, 0]]}, {"op": "null", "name": "p140", "inputs": []}, {"op": "null", "name": "p141", "inputs": []}, {"op": "null", "name": "p142", "inputs": []}, {"op": "null", "name": "p143", "inputs": []}, {"op": "tvm_op", "name": "fused_cast_subtract_fixed_point_multiply_add_nn_contrib_conv2d_NCHWc_subtract_ad_13352175223490720149__11", "attrs": {"num_outputs": "1", "num_inputs": "8", "func_name": "fused_cast_subtract_fixed_point_multiply_add_nn_contrib_conv2d_NCHWc_subtract_ad_13352175223490720149__11", "flatten_data": "0"}, "inputs": [[285, 0, 0], [295, 0, 0], [296, 0, 0], [301, 0, 0], [302, 0, 0], [303, 0, 0], [304, 0, 0], [305, 0, 0]]}, {"op": "null", "name": "p144", "inputs": []}, {"op": "tvm_op", "name": "fused_cast_layout_transform_91", "attrs": {"num_outputs": "1", "num_inputs": "1", "func_name": "fused_cast_layout_transform_9", "flatten_data": "0"}, "inputs": [[306, 0, 0]]}, {"op": "tvm_op", "name": "fused_sum_241", "attrs": {"num_outputs": "1", "num_inputs": "1", "func_name": "fused_sum_24", "flatten_data": "0"}, "inputs": [[308, 0, 0]]}, {"op": "tvm_op", "name": "fused_multiply_layout_transform_11", "attrs": {"num_outputs": "1", "num_inputs": "1", "func_name": "fused_multiply_layout_transform_11", "flatten_data": "0"}, "inputs": [[309, 0, 0]]}, {"op": "null", "name": "p145", "inputs": []}, {"op": "null", "name": "p146", "inputs": []}, {"op": "null", "name": "p147", "inputs": []}, {"op": "null", "name": "p148", "inputs": []}, {"op": "tvm_op", "name": "fused_nn_contrib_conv2d_NCHWc_subtract_add_add_cast_fixed_point_multiply_add_cli_13071055640516155715__34", "attrs": {"num_outputs": "1", "num_inputs": "7", "func_name": "fused_nn_contrib_conv2d_NCHWc_subtract_add_add_cast_fixed_point_multiply_add_cli_13071055640516155715__34", "flatten_data": "0"}, "inputs": [[306, 0, 0], [307, 0, 0], [310, 0, 0], [311, 0, 0], [312, 0, 0], [313, 0, 0], [314, 0, 0]]}, {"op": "tvm_op", "name": "fused_nn_pad_23", "attrs": {"num_outputs": "1", "num_inputs": "1", "func_name": "fused_nn_pad_23", "flatten_data": "0"}, "inputs": [[315, 0, 0]]}, {"op": "null", "name": "p149", "inputs": []}, {"op": "tvm_op", "name": "fused_cast_layout_transform_101", "attrs": {"num_outputs": "1", "num_inputs": "1", "func_name": "fused_cast_layout_transform_10", "flatten_data": "0"}, "inputs": [[316, 0, 0]]}, {"op": "tvm_op", "name": "fused_sum_251", "attrs": {"num_outputs": "1", "num_inputs": "1", "func_name": "fused_sum_25", "flatten_data": "0"}, "inputs": [[318, 0, 0]]}, {"op": "tvm_op", "name": "fused_multiply_141", "attrs": {"num_outputs": "1", "num_inputs": "1", "func_name": "fused_multiply_14", "flatten_data": "0"}, "inputs": [[319, 0, 0]]}, {"op": "tvm_op", "name": "fused_nn_avg_pool2d_multiply_16", "attrs": {"num_outputs": "1", "num_inputs": "1", "func_name": "fused_nn_avg_pool2d_multiply_16", "flatten_data": "0"}, "inputs": [[320, 0, 0]]}, {"op": "tvm_op", "name": "fused_layout_transform_542", "attrs": {"num_outputs": "1", "num_inputs": "1", "func_name": "fused_layout_transform_54", "flatten_data": "0"}, "inputs": [[321, 0, 0]]}, {"op": "null", "name": "p150", "inputs": []}, {"op": "null", "name": "p151", "inputs": []}, {"op": "null", "name": "p152", "inputs": []}, {"op": "null", "name": "p153", "inputs": []}, {"op": "tvm_op", "name": "fused_cast_subtract_fixed_point_multiply_add_nn_contrib_conv2d_NCHWc_subtract_ad_13352175223490720149__10", "attrs": {"num_outputs": "1", "num_inputs": "8", "func_name": "fused_cast_subtract_fixed_point_multiply_add_nn_contrib_conv2d_NCHWc_subtract_ad_13352175223490720149__10", "flatten_data": "0"}, "inputs": [[306, 0, 0], [316, 0, 0], [317, 0, 0], [322, 0, 0], [323, 0, 0], [324, 0, 0], [325, 0, 0], [326, 0, 0]]}, {"op": "null", "name": "p154", "inputs": []}, {"op": "tvm_op", "name": "fused_cast_layout_transform_92", "attrs": {"num_outputs": "1", "num_inputs": "1", "func_name": "fused_cast_layout_transform_9", "flatten_data": "0"}, "inputs": [[327, 0, 0]]}, {"op": "tvm_op", "name": "fused_sum_242", "attrs": {"num_outputs": "1", "num_inputs": "1", "func_name": "fused_sum_24", "flatten_data": "0"}, "inputs": [[329, 0, 0]]}, {"op": "tvm_op", "name": "fused_multiply_layout_transform_12", "attrs": {"num_outputs": "1", "num_inputs": "1", "func_name": "fused_multiply_layout_transform_12", "flatten_data": "0"}, "inputs": [[330, 0, 0]]}, {"op": "null", "name": "p155", "inputs": []}, {"op": "null", "name": "p156", "inputs": []}, {"op": "null", "name": "p157", "inputs": []}, {"op": "null", "name": "p158", "inputs": []}, {"op": "tvm_op", "name": "fused_nn_contrib_conv2d_NCHWc_subtract_add_add_cast_fixed_point_multiply_add_cli_13071055640516155715__35", "attrs": {"num_outputs": "1", "num_inputs": "7", "func_name": "fused_nn_contrib_conv2d_NCHWc_subtract_add_add_cast_fixed_point_multiply_add_cli_13071055640516155715__35", "flatten_data": "0"}, "inputs": [[327, 0, 0], [328, 0, 0], [331, 0, 0], [332, 0, 0], [333, 0, 0], [334, 0, 0], [335, 0, 0]]}, {"op": "tvm_op", "name": "fused_nn_pad_24", "attrs": {"num_outputs": "1", "num_inputs": "1", "func_name": "fused_nn_pad_24", "flatten_data": "0"}, "inputs": [[336, 0, 0]]}, {"op": "null", "name": "p159", "inputs": []}, {"op": "tvm_op", "name": "fused_cast_layout_transform_102", "attrs": {"num_outputs": "1", "num_inputs": "1", "func_name": "fused_cast_layout_transform_10", "flatten_data": "0"}, "inputs": [[337, 0, 0]]}, {"op": "tvm_op", "name": "fused_sum_252", "attrs": {"num_outputs": "1", "num_inputs": "1", "func_name": "fused_sum_25", "flatten_data": "0"}, "inputs": [[339, 0, 0]]}, {"op": "tvm_op", "name": "fused_multiply_142", "attrs": {"num_outputs": "1", "num_inputs": "1", "func_name": "fused_multiply_14", "flatten_data": "0"}, "inputs": [[340, 0, 0]]}, {"op": "tvm_op", "name": "fused_nn_avg_pool2d_multiply_17", "attrs": {"num_outputs": "1", "num_inputs": "1", "func_name": "fused_nn_avg_pool2d_multiply_17", "flatten_data": "0"}, "inputs": [[341, 0, 0]]}, {"op": "tvm_op", "name": "fused_layout_transform_543", "attrs": {"num_outputs": "1", "num_inputs": "1", "func_name": "fused_layout_transform_54", "flatten_data": "0"}, "inputs": [[342, 0, 0]]}, {"op": "null", "name": "p160", "inputs": []}, {"op": "null", "name": "p161", "inputs": []}, {"op": "null", "name": "p162", "inputs": []}, {"op": "null", "name": "p163", "inputs": []}, {"op": "tvm_op", "name": "fused_cast_subtract_fixed_point_multiply_add_nn_contrib_conv2d_NCHWc_subtract_ad_13352175223490720149__9", "attrs": {"num_outputs": "1", "num_inputs": "8", "func_name": "fused_cast_subtract_fixed_point_multiply_add_nn_contrib_conv2d_NCHWc_subtract_ad_13352175223490720149__9", "flatten_data": "0"}, "inputs": [[327, 0, 0], [337, 0, 0], [338, 0, 0], [343, 0, 0], [344, 0, 0], [345, 0, 0], [346, 0, 0], [347, 0, 0]]}, {"op": "null", "name": "p164", "inputs": []}, {"op": "null", "name": "p165", "inputs": []}, {"op": "null", "name": "p166", "inputs": []}, {"op": "null", "name": "p167", "inputs": []}, {"op": "null", "name": "p168", "inputs": []}, {"op": "tvm_op", "name": "fused_nn_contrib_conv2d_NCHWc_subtract_add_cast_fixed_point_multiply_add_clip_ca_11834180753401736574__2", "attrs": {"num_outputs": "1", "num_inputs": "6", "func_name": "fused_nn_contrib_conv2d_NCHWc_subtract_add_cast_fixed_point_multiply_add_clip_ca_11834180753401736574__2", "flatten_data": "0"}, "inputs": [[348, 0, 0], [349, 0, 0], [350, 0, 0], [351, 0, 0], [352, 0, 0], [353, 0, 0]]}, {"op": "tvm_op", "name": "fused_nn_pad_25", "attrs": {"num_outputs": "1", "num_inputs": "1", "func_name": "fused_nn_pad_25", "flatten_data": "0"}, "inputs": [[354, 0, 0]]}, {"op": "null", "name": "p169", "inputs": []}, {"op": "tvm_op", "name": "fused_cast_layout_transform_103", "attrs": {"num_outputs": "1", "num_inputs": "1", "func_name": "fused_cast_layout_transform_10", "flatten_data": "0"}, "inputs": [[355, 0, 0]]}, {"op": "tvm_op", "name": "fused_sum_253", "attrs": {"num_outputs": "1", "num_inputs": "1", "func_name": "fused_sum_25", "flatten_data": "0"}, "inputs": [[357, 0, 0]]}, {"op": "tvm_op", "name": "fused_multiply_143", "attrs": {"num_outputs": "1", "num_inputs": "1", "func_name": "fused_multiply_14", "flatten_data": "0"}, "inputs": [[358, 0, 0]]}, {"op": "tvm_op", "name": "fused_nn_avg_pool2d_multiply_18", "attrs": {"num_outputs": "1", "num_inputs": "1", "func_name": "fused_nn_avg_pool2d_multiply_18", "flatten_data": "0"}, "inputs": [[359, 0, 0]]}, {"op": "tvm_op", "name": "fused_layout_transform_544", "attrs": {"num_outputs": "1", "num_inputs": "1", "func_name": "fused_layout_transform_54", "flatten_data": "0"}, "inputs": [[360, 0, 0]]}, {"op": "null", "name": "p170", "inputs": []}, {"op": "null", "name": "p171", "inputs": []}, {"op": "null", "name": "p172", "inputs": []}, {"op": "null", "name": "p173", "inputs": []}, {"op": "tvm_op", "name": "fused_cast_subtract_fixed_point_multiply_add_nn_contrib_conv2d_NCHWc_subtract_ad_13352175223490720149__8", "attrs": {"num_outputs": "1", "num_inputs": "8", "func_name": "fused_cast_subtract_fixed_point_multiply_add_nn_contrib_conv2d_NCHWc_subtract_ad_13352175223490720149__8", "flatten_data": "0"}, "inputs": [[348, 0, 0], [355, 0, 0], [356, 0, 0], [361, 0, 0], [362, 0, 0], [363, 0, 0], [364, 0, 0], [365, 0, 0]]}, {"op": "null", "name": "p174", "inputs": []}, {"op": "tvm_op", "name": "fused_cast_layout_transform_93", "attrs": {"num_outputs": "1", "num_inputs": "1", "func_name": "fused_cast_layout_transform_9", "flatten_data": "0"}, "inputs": [[366, 0, 0]]}, {"op": "tvm_op", "name": "fused_sum_243", "attrs": {"num_outputs": "1", "num_inputs": "1", "func_name": "fused_sum_24", "flatten_data": "0"}, "inputs": [[368, 0, 0]]}, {"op": "tvm_op", "name": "fused_multiply_layout_transform_13", "attrs": {"num_outputs": "1", "num_inputs": "1", "func_name": "fused_multiply_layout_transform_13", "flatten_data": "0"}, "inputs": [[369, 0, 0]]}, {"op": "null", "name": "p175", "inputs": []}, {"op": "null", "name": "p176", "inputs": []}, {"op": "null", "name": "p177", "inputs": []}, {"op": "null", "name": "p178", "inputs": []}, {"op": "tvm_op", "name": "fused_nn_contrib_conv2d_NCHWc_subtract_add_add_cast_fixed_point_multiply_add_cli_13071055640516155715__36", "attrs": {"num_outputs": "1", "num_inputs": "7", "func_name": "fused_nn_contrib_conv2d_NCHWc_subtract_add_add_cast_fixed_point_multiply_add_cli_13071055640516155715__36", "flatten_data": "0"}, "inputs": [[366, 0, 0], [367, 0, 0], [370, 0, 0], [371, 0, 0], [372, 0, 0], [373, 0, 0], [374, 0, 0]]}, {"op": "tvm_op", "name": "fused_nn_pad_26", "attrs": {"num_outputs": "1", "num_inputs": "1", "func_name": "fused_nn_pad_26", "flatten_data": "0"}, "inputs": [[375, 0, 0]]}, {"op": "null", "name": "p179", "inputs": []}, {"op": "tvm_op", "name": "fused_cast_layout_transform_104", "attrs": {"num_outputs": "1", "num_inputs": "1", "func_name": "fused_cast_layout_transform_10", "flatten_data": "0"}, "inputs": [[376, 0, 0]]}, {"op": "tvm_op", "name": "fused_sum_254", "attrs": {"num_outputs": "1", "num_inputs": "1", "func_name": "fused_sum_25", "flatten_data": "0"}, "inputs": [[378, 0, 0]]}, {"op": "tvm_op", "name": "fused_multiply_144", "attrs": {"num_outputs": "1", "num_inputs": "1", "func_name": "fused_multiply_14", "flatten_data": "0"}, "inputs": [[379, 0, 0]]}, {"op": "tvm_op", "name": "fused_nn_avg_pool2d_multiply_19", "attrs": {"num_outputs": "1", "num_inputs": "1", "func_name": "fused_nn_avg_pool2d_multiply_19", "flatten_data": "0"}, "inputs": [[380, 0, 0]]}, {"op": "tvm_op", "name": "fused_layout_transform_545", "attrs": {"num_outputs": "1", "num_inputs": "1", "func_name": "fused_layout_transform_54", "flatten_data": "0"}, "inputs": [[381, 0, 0]]}, {"op": "null", "name": "p180", "inputs": []}, {"op": "null", "name": "p181", "inputs": []}, {"op": "null", "name": "p182", "inputs": []}, {"op": "null", "name": "p183", "inputs": []}, {"op": "tvm_op", "name": "fused_cast_subtract_fixed_point_multiply_add_nn_contrib_conv2d_NCHWc_subtract_ad_13352175223490720149__7", "attrs": {"num_outputs": "1", "num_inputs": "8", "func_name": "fused_cast_subtract_fixed_point_multiply_add_nn_contrib_conv2d_NCHWc_subtract_ad_13352175223490720149__7", "flatten_data": "0"}, "inputs": [[366, 0, 0], [376, 0, 0], [377, 0, 0], [382, 0, 0], [383, 0, 0], [384, 0, 0], [385, 0, 0], [386, 0, 0]]}, {"op": "null", "name": "p184", "inputs": []}, {"op": "tvm_op", "name": "fused_cast_layout_transform_94", "attrs": {"num_outputs": "1", "num_inputs": "1", "func_name": "fused_cast_layout_transform_9", "flatten_data": "0"}, "inputs": [[387, 0, 0]]}, {"op": "tvm_op", "name": "fused_sum_244", "attrs": {"num_outputs": "1", "num_inputs": "1", "func_name": "fused_sum_24", "flatten_data": "0"}, "inputs": [[389, 0, 0]]}, {"op": "tvm_op", "name": "fused_multiply_layout_transform_14", "attrs": {"num_outputs": "1", "num_inputs": "1", "func_name": "fused_multiply_layout_transform_14", "flatten_data": "0"}, "inputs": [[390, 0, 0]]}, {"op": "null", "name": "p185", "inputs": []}, {"op": "null", "name": "p186", "inputs": []}, {"op": "null", "name": "p187", "inputs": []}, {"op": "null", "name": "p188", "inputs": []}, {"op": "tvm_op", "name": "fused_nn_contrib_conv2d_NCHWc_subtract_add_add_cast_fixed_point_multiply_add_cli_13071055640516155715__37", "attrs": {"num_outputs": "1", "num_inputs": "7", "func_name": "fused_nn_contrib_conv2d_NCHWc_subtract_add_add_cast_fixed_point_multiply_add_cli_13071055640516155715__37", "flatten_data": "0"}, "inputs": [[387, 0, 0], [388, 0, 0], [391, 0, 0], [392, 0, 0], [393, 0, 0], [394, 0, 0], [395, 0, 0]]}, {"op": "tvm_op", "name": "fused_nn_pad_27", "attrs": {"num_outputs": "1", "num_inputs": "1", "func_name": "fused_nn_pad_27", "flatten_data": "0"}, "inputs": [[396, 0, 0]]}, {"op": "null", "name": "p189", "inputs": []}, {"op": "tvm_op", "name": "fused_cast_layout_transform_105", "attrs": {"num_outputs": "1", "num_inputs": "1", "func_name": "fused_cast_layout_transform_10", "flatten_data": "0"}, "inputs": [[397, 0, 0]]}, {"op": "tvm_op", "name": "fused_sum_255", "attrs": {"num_outputs": "1", "num_inputs": "1", "func_name": "fused_sum_25", "flatten_data": "0"}, "inputs": [[399, 0, 0]]}, {"op": "tvm_op", "name": "fused_multiply_145", "attrs": {"num_outputs": "1", "num_inputs": "1", "func_name": "fused_multiply_14", "flatten_data": "0"}, "inputs": [[400, 0, 0]]}, {"op": "tvm_op", "name": "fused_nn_avg_pool2d_multiply_20", "attrs": {"num_outputs": "1", "num_inputs": "1", "func_name": "fused_nn_avg_pool2d_multiply_20", "flatten_data": "0"}, "inputs": [[401, 0, 0]]}, {"op": "tvm_op", "name": "fused_layout_transform_546", "attrs": {"num_outputs": "1", "num_inputs": "1", "func_name": "fused_layout_transform_54", "flatten_data": "0"}, "inputs": [[402, 0, 0]]}, {"op": "null", "name": "p190", "inputs": []}, {"op": "null", "name": "p191", "inputs": []}, {"op": "null", "name": "p192", "inputs": []}, {"op": "null", "name": "p193", "inputs": []}, {"op": "tvm_op", "name": "fused_cast_subtract_fixed_point_multiply_add_nn_contrib_conv2d_NCHWc_subtract_ad_13352175223490720149__6", "attrs": {"num_outputs": "1", "num_inputs": "8", "func_name": "fused_cast_subtract_fixed_point_multiply_add_nn_contrib_conv2d_NCHWc_subtract_ad_13352175223490720149__6", "flatten_data": "0"}, "inputs": [[387, 0, 0], [397, 0, 0], [398, 0, 0], [403, 0, 0], [404, 0, 0], [405, 0, 0], [406, 0, 0], [407, 0, 0]]}, {"op": "null", "name": "p194", "inputs": []}, {"op": "tvm_op", "name": "fused_cast_layout_transform_95", "attrs": {"num_outputs": "1", "num_inputs": "1", "func_name": "fused_cast_layout_transform_9", "flatten_data": "0"}, "inputs": [[408, 0, 0]]}, {"op": "tvm_op", "name": "fused_sum_245", "attrs": {"num_outputs": "1", "num_inputs": "1", "func_name": "fused_sum_24", "flatten_data": "0"}, "inputs": [[410, 0, 0]]}, {"op": "tvm_op", "name": "fused_multiply_layout_transform_15", "attrs": {"num_outputs": "1", "num_inputs": "1", "func_name": "fused_multiply_layout_transform_15", "flatten_data": "0"}, "inputs": [[411, 0, 0]]}, {"op": "null", "name": "p195", "inputs": []}, {"op": "null", "name": "p196", "inputs": []}, {"op": "null", "name": "p197", "inputs": []}, {"op": "null", "name": "p198", "inputs": []}, {"op": "tvm_op", "name": "fused_nn_contrib_conv2d_NCHWc_subtract_add_add_cast_fixed_point_multiply_add_cli_13071055640516155715__38", "attrs": {"num_outputs": "1", "num_inputs": "7", "func_name": "fused_nn_contrib_conv2d_NCHWc_subtract_add_add_cast_fixed_point_multiply_add_cli_13071055640516155715__38", "flatten_data": "0"}, "inputs": [[408, 0, 0], [409, 0, 0], [412, 0, 0], [413, 0, 0], [414, 0, 0], [415, 0, 0], [416, 0, 0]]}, {"op": "tvm_op", "name": "fused_nn_pad_28", "attrs": {"num_outputs": "1", "num_inputs": "1", "func_name": "fused_nn_pad_28", "flatten_data": "0"}, "inputs": [[417, 0, 0]]}, {"op": "null", "name": "p199", "inputs": []}, {"op": "tvm_op", "name": "fused_cast_layout_transform_106", "attrs": {"num_outputs": "1", "num_inputs": "1", "func_name": "fused_cast_layout_transform_10", "flatten_data": "0"}, "inputs": [[418, 0, 0]]}, {"op": "tvm_op", "name": "fused_sum_256", "attrs": {"num_outputs": "1", "num_inputs": "1", "func_name": "fused_sum_25", "flatten_data": "0"}, "inputs": [[420, 0, 0]]}, {"op": "tvm_op", "name": "fused_multiply_146", "attrs": {"num_outputs": "1", "num_inputs": "1", "func_name": "fused_multiply_14", "flatten_data": "0"}, "inputs": [[421, 0, 0]]}, {"op": "tvm_op", "name": "fused_nn_avg_pool2d_multiply_21", "attrs": {"num_outputs": "1", "num_inputs": "1", "func_name": "fused_nn_avg_pool2d_multiply_21", "flatten_data": "0"}, "inputs": [[422, 0, 0]]}, {"op": "tvm_op", "name": "fused_layout_transform_547", "attrs": {"num_outputs": "1", "num_inputs": "1", "func_name": "fused_layout_transform_54", "flatten_data": "0"}, "inputs": [[423, 0, 0]]}, {"op": "null", "name": "p200", "inputs": []}, {"op": "null", "name": "p201", "inputs": []}, {"op": "null", "name": "p202", "inputs": []}, {"op": "null", "name": "p203", "inputs": []}, {"op": "tvm_op", "name": "fused_cast_subtract_fixed_point_multiply_add_nn_contrib_conv2d_NCHWc_subtract_ad_13352175223490720149__5", "attrs": {"num_outputs": "1", "num_inputs": "8", "func_name": "fused_cast_subtract_fixed_point_multiply_add_nn_contrib_conv2d_NCHWc_subtract_ad_13352175223490720149__5", "flatten_data": "0"}, "inputs": [[408, 0, 0], [418, 0, 0], [419, 0, 0], [424, 0, 0], [425, 0, 0], [426, 0, 0], [427, 0, 0], [428, 0, 0]]}, {"op": "null", "name": "p204", "inputs": []}, {"op": "tvm_op", "name": "fused_cast_layout_transform_96", "attrs": {"num_outputs": "1", "num_inputs": "1", "func_name": "fused_cast_layout_transform_9", "flatten_data": "0"}, "inputs": [[429, 0, 0]]}, {"op": "tvm_op", "name": "fused_sum_246", "attrs": {"num_outputs": "1", "num_inputs": "1", "func_name": "fused_sum_24", "flatten_data": "0"}, "inputs": [[431, 0, 0]]}, {"op": "tvm_op", "name": "fused_multiply_layout_transform_16", "attrs": {"num_outputs": "1", "num_inputs": "1", "func_name": "fused_multiply_layout_transform_16", "flatten_data": "0"}, "inputs": [[432, 0, 0]]}, {"op": "null", "name": "p205", "inputs": []}, {"op": "null", "name": "p206", "inputs": []}, {"op": "null", "name": "p207", "inputs": []}, {"op": "null", "name": "p208", "inputs": []}, {"op": "tvm_op", "name": "fused_nn_contrib_conv2d_NCHWc_subtract_add_add_cast_fixed_point_multiply_add_cli_13071055640516155715__39", "attrs": {"num_outputs": "1", "num_inputs": "7", "func_name": "fused_nn_contrib_conv2d_NCHWc_subtract_add_add_cast_fixed_point_multiply_add_cli_13071055640516155715__39", "flatten_data": "0"}, "inputs": [[429, 0, 0], [430, 0, 0], [433, 0, 0], [434, 0, 0], [435, 0, 0], [436, 0, 0], [437, 0, 0]]}, {"op": "tvm_op", "name": "fused_nn_pad_29", "attrs": {"num_outputs": "1", "num_inputs": "1", "func_name": "fused_nn_pad_29", "flatten_data": "0"}, "inputs": [[438, 0, 0]]}, {"op": "null", "name": "p209", "inputs": []}, {"op": "tvm_op", "name": "fused_cast_layout_transform_107", "attrs": {"num_outputs": "1", "num_inputs": "1", "func_name": "fused_cast_layout_transform_10", "flatten_data": "0"}, "inputs": [[439, 0, 0]]}, {"op": "tvm_op", "name": "fused_sum_257", "attrs": {"num_outputs": "1", "num_inputs": "1", "func_name": "fused_sum_25", "flatten_data": "0"}, "inputs": [[441, 0, 0]]}, {"op": "tvm_op", "name": "fused_multiply_147", "attrs": {"num_outputs": "1", "num_inputs": "1", "func_name": "fused_multiply_14", "flatten_data": "0"}, "inputs": [[442, 0, 0]]}, {"op": "tvm_op", "name": "fused_nn_avg_pool2d_multiply_22", "attrs": {"num_outputs": "1", "num_inputs": "1", "func_name": "fused_nn_avg_pool2d_multiply_22", "flatten_data": "0"}, "inputs": [[443, 0, 0]]}, {"op": "tvm_op", "name": "fused_layout_transform_548", "attrs": {"num_outputs": "1", "num_inputs": "1", "func_name": "fused_layout_transform_54", "flatten_data": "0"}, "inputs": [[444, 0, 0]]}, {"op": "null", "name": "p210", "inputs": []}, {"op": "null", "name": "p211", "inputs": []}, {"op": "null", "name": "p212", "inputs": []}, {"op": "null", "name": "p213", "inputs": []}, {"op": "tvm_op", "name": "fused_cast_subtract_fixed_point_multiply_add_nn_contrib_conv2d_NCHWc_subtract_ad_13352175223490720149__4", "attrs": {"num_outputs": "1", "num_inputs": "8", "func_name": "fused_cast_subtract_fixed_point_multiply_add_nn_contrib_conv2d_NCHWc_subtract_ad_13352175223490720149__4", "flatten_data": "0"}, "inputs": [[429, 0, 0], [439, 0, 0], [440, 0, 0], [445, 0, 0], [446, 0, 0], [447, 0, 0], [448, 0, 0], [449, 0, 0]]}, {"op": "tvm_op", "name": "fused_nn_pad_7", "attrs": {"num_outputs": "1", "num_inputs": "1", "func_name": "fused_nn_pad_7", "flatten_data": "0"}, "inputs": [[450, 0, 0]]}, {"op": "null", "name": "p214", "inputs": []}, {"op": "tvm_op", "name": "fused_cast_layout_transform_11", "attrs": {"num_outputs": "1", "num_inputs": "1", "func_name": "fused_cast_layout_transform_11", "flatten_data": "0"}, "inputs": [[451, 0, 0]]}, {"op": "tvm_op", "name": "fused_sum_26", "attrs": {"num_outputs": "1", "num_inputs": "1", "func_name": "fused_sum_26", "flatten_data": "0"}, "inputs": [[453, 0, 0]]}, {"op": "tvm_op", "name": "fused_multiply_15", "attrs": {"num_outputs": "1", "num_inputs": "1", "func_name": "fused_multiply_15", "flatten_data": "0"}, "inputs": [[454, 0, 0]]}, {"op": "tvm_op", "name": "fused_nn_avg_pool2d_multiply_23", "attrs": {"num_outputs": "1", "num_inputs": "1", "func_name": "fused_nn_avg_pool2d_multiply_23", "flatten_data": "0"}, "inputs": [[455, 0, 0]]}, {"op": "tvm_op", "name": "fused_layout_transform_55", "attrs": {"num_outputs": "1", "num_inputs": "1", "func_name": "fused_layout_transform_55", "flatten_data": "0"}, "inputs": [[456, 0, 0]]}, {"op": "null", "name": "p215", "inputs": []}, {"op": "null", "name": "p216", "inputs": []}, {"op": "null", "name": "p217", "inputs": []}, {"op": "null", "name": "p218", "inputs": []}, {"op": "tvm_op", "name": "fused_nn_contrib_conv2d_NCHWc_subtract_add_add_cast_fixed_point_multiply_add_cli_13071055640516155715__18", "attrs": {"num_outputs": "1", "num_inputs": "7", "func_name": "fused_nn_contrib_conv2d_NCHWc_subtract_add_add_cast_fixed_point_multiply_add_cli_13071055640516155715__18", "flatten_data": "0"}, "inputs": [[451, 0, 0], [452, 0, 0], [457, 0, 0], [458, 0, 0], [459, 0, 0], [460, 0, 0], [461, 0, 0]]}, {"op": "null", "name": "p219", "inputs": []}, {"op": "tvm_op", "name": "fused_cast_layout_transform_12", "attrs": {"num_outputs": "1", "num_inputs": "1", "func_name": "fused_cast_layout_transform_12", "flatten_data": "0"}, "inputs": [[462, 0, 0]]}, {"op": "tvm_op", "name": "fused_sum_27", "attrs": {"num_outputs": "1", "num_inputs": "1", "func_name": "fused_sum_27", "flatten_data": "0"}, "inputs": [[464, 0, 0]]}, {"op": "tvm_op", "name": "fused_multiply_layout_transform_17", "attrs": {"num_outputs": "1", "num_inputs": "1", "func_name": "fused_multiply_layout_transform_17", "flatten_data": "0"}, "inputs": [[465, 0, 0]]}, {"op": "null", "name": "p220", "inputs": []}, {"op": "null", "name": "p221", "inputs": []}, {"op": "null", "name": "p222", "inputs": []}, {"op": "null", "name": "p223", "inputs": []}, {"op": "tvm_op", "name": "fused_nn_contrib_conv2d_NCHWc_subtract_add_add_cast_fixed_point_multiply_add_cli_13071055640516155715__40", "attrs": {"num_outputs": "1", "num_inputs": "7", "func_name": "fused_nn_contrib_conv2d_NCHWc_subtract_add_add_cast_fixed_point_multiply_add_cli_13071055640516155715__40", "flatten_data": "0"}, "inputs": [[462, 0, 0], [463, 0, 0], [466, 0, 0], [467, 0, 0], [468, 0, 0], [469, 0, 0], [470, 0, 0]]}, {"op": "tvm_op", "name": "fused_nn_pad_30", "attrs": {"num_outputs": "1", "num_inputs": "1", "func_name": "fused_nn_pad_30", "flatten_data": "0"}, "inputs": [[471, 0, 0]]}, {"op": "null", "name": "p224", "inputs": []}, {"op": "tvm_op", "name": "fused_cast_layout_transform_13", "attrs": {"num_outputs": "1", "num_inputs": "1", "func_name": "fused_cast_layout_transform_13", "flatten_data": "0"}, "inputs": [[472, 0, 0]]}, {"op": "tvm_op", "name": "fused_sum_28", "attrs": {"num_outputs": "1", "num_inputs": "1", "func_name": "fused_sum_28", "flatten_data": "0"}, "inputs": [[474, 0, 0]]}, {"op": "tvm_op", "name": "fused_multiply_16", "attrs": {"num_outputs": "1", "num_inputs": "1", "func_name": "fused_multiply_16", "flatten_data": "0"}, "inputs": [[475, 0, 0]]}, {"op": "tvm_op", "name": "fused_nn_avg_pool2d_multiply_24", "attrs": {"num_outputs": "1", "num_inputs": "1", "func_name": "fused_nn_avg_pool2d_multiply_24", "flatten_data": "0"}, "inputs": [[476, 0, 0]]}, {"op": "tvm_op", "name": "fused_layout_transform_551", "attrs": {"num_outputs": "1", "num_inputs": "1", "func_name": "fused_layout_transform_55", "flatten_data": "0"}, "inputs": [[477, 0, 0]]}, {"op": "null", "name": "p225", "inputs": []}, {"op": "null", "name": "p226", "inputs": []}, {"op": "null", "name": "p227", "inputs": []}, {"op": "null", "name": "p228", "inputs": []}, {"op": "tvm_op", "name": "fused_cast_subtract_fixed_point_multiply_add_nn_contrib_conv2d_NCHWc_subtract_ad_13352175223490720149__3", "attrs": {"num_outputs": "1", "num_inputs": "8", "func_name": "fused_cast_subtract_fixed_point_multiply_add_nn_contrib_conv2d_NCHWc_subtract_ad_13352175223490720149__3", "flatten_data": "0"}, "inputs": [[462, 0, 0], [472, 0, 0], [473, 0, 0], [478, 0, 0], [479, 0, 0], [480, 0, 0], [481, 0, 0], [482, 0, 0]]}, {"op": "null", "name": "p229", "inputs": []}, {"op": "tvm_op", "name": "fused_cast_layout_transform_121", "attrs": {"num_outputs": "1", "num_inputs": "1", "func_name": "fused_cast_layout_transform_12", "flatten_data": "0"}, "inputs": [[483, 0, 0]]}, {"op": "tvm_op", "name": "fused_sum_271", "attrs": {"num_outputs": "1", "num_inputs": "1", "func_name": "fused_sum_27", "flatten_data": "0"}, "inputs": [[485, 0, 0]]}, {"op": "tvm_op", "name": "fused_multiply_layout_transform_18", "attrs": {"num_outputs": "1", "num_inputs": "1", "func_name": "fused_multiply_layout_transform_18", "flatten_data": "0"}, "inputs": [[486, 0, 0]]}, {"op": "null", "name": "p230", "inputs": []}, {"op": "null", "name": "p231", "inputs": []}, {"op": "null", "name": "p232", "inputs": []}, {"op": "null", "name": "p233", "inputs": []}, {"op": "tvm_op", "name": "fused_nn_contrib_conv2d_NCHWc_subtract_add_add_cast_fixed_point_multiply_add_cli_13071055640516155715__41", "attrs": {"num_outputs": "1", "num_inputs": "7", "func_name": "fused_nn_contrib_conv2d_NCHWc_subtract_add_add_cast_fixed_point_multiply_add_cli_13071055640516155715__41", "flatten_data": "0"}, "inputs": [[483, 0, 0], [484, 0, 0], [487, 0, 0], [488, 0, 0], [489, 0, 0], [490, 0, 0], [491, 0, 0]]}, {"op": "tvm_op", "name": "fused_nn_pad_31", "attrs": {"num_outputs": "1", "num_inputs": "1", "func_name": "fused_nn_pad_31", "flatten_data": "0"}, "inputs": [[492, 0, 0]]}, {"op": "null", "name": "p234", "inputs": []}, {"op": "tvm_op", "name": "fused_cast_layout_transform_131", "attrs": {"num_outputs": "1", "num_inputs": "1", "func_name": "fused_cast_layout_transform_13", "flatten_data": "0"}, "inputs": [[493, 0, 0]]}, {"op": "tvm_op", "name": "fused_sum_281", "attrs": {"num_outputs": "1", "num_inputs": "1", "func_name": "fused_sum_28", "flatten_data": "0"}, "inputs": [[495, 0, 0]]}, {"op": "tvm_op", "name": "fused_multiply_161", "attrs": {"num_outputs": "1", "num_inputs": "1", "func_name": "fused_multiply_16", "flatten_data": "0"}, "inputs": [[496, 0, 0]]}, {"op": "tvm_op", "name": "fused_nn_avg_pool2d_multiply_25", "attrs": {"num_outputs": "1", "num_inputs": "1", "func_name": "fused_nn_avg_pool2d_multiply_25", "flatten_data": "0"}, "inputs": [[497, 0, 0]]}, {"op": "tvm_op", "name": "fused_layout_transform_552", "attrs": {"num_outputs": "1", "num_inputs": "1", "func_name": "fused_layout_transform_55", "flatten_data": "0"}, "inputs": [[498, 0, 0]]}, {"op": "null", "name": "p235", "inputs": []}, {"op": "null", "name": "p236", "inputs": []}, {"op": "null", "name": "p237", "inputs": []}, {"op": "null", "name": "p238", "inputs": []}, {"op": "tvm_op", "name": "fused_cast_subtract_fixed_point_multiply_add_nn_contrib_conv2d_NCHWc_subtract_ad_13352175223490720149__2", "attrs": {"num_outputs": "1", "num_inputs": "8", "func_name": "fused_cast_subtract_fixed_point_multiply_add_nn_contrib_conv2d_NCHWc_subtract_ad_13352175223490720149__2", "flatten_data": "0"}, "inputs": [[483, 0, 0], [493, 0, 0], [494, 0, 0], [499, 0, 0], [500, 0, 0], [501, 0, 0], [502, 0, 0], [503, 0, 0]]}, {"op": "null", "name": "p239", "inputs": []}, {"op": "tvm_op", "name": "fused_cast_layout_transform_122", "attrs": {"num_outputs": "1", "num_inputs": "1", "func_name": "fused_cast_layout_transform_12", "flatten_data": "0"}, "inputs": [[504, 0, 0]]}, {"op": "tvm_op", "name": "fused_sum_272", "attrs": {"num_outputs": "1", "num_inputs": "1", "func_name": "fused_sum_27", "flatten_data": "0"}, "inputs": [[506, 0, 0]]}, {"op": "tvm_op", "name": "fused_multiply_layout_transform_19", "attrs": {"num_outputs": "1", "num_inputs": "1", "func_name": "fused_multiply_layout_transform_19", "flatten_data": "0"}, "inputs": [[507, 0, 0]]}, {"op": "null", "name": "p240", "inputs": []}, {"op": "null", "name": "p241", "inputs": []}, {"op": "null", "name": "p242", "inputs": []}, {"op": "null", "name": "p243", "inputs": []}, {"op": "tvm_op", "name": "fused_nn_contrib_conv2d_NCHWc_subtract_add_add_cast_fixed_point_multiply_add_cli_13071055640516155715__42", "attrs": {"num_outputs": "1", "num_inputs": "7", "func_name": "fused_nn_contrib_conv2d_NCHWc_subtract_add_add_cast_fixed_point_multiply_add_cli_13071055640516155715__42", "flatten_data": "0"}, "inputs": [[504, 0, 0], [505, 0, 0], [508, 0, 0], [509, 0, 0], [510, 0, 0], [511, 0, 0], [512, 0, 0]]}, {"op": "tvm_op", "name": "fused_nn_pad_32", "attrs": {"num_outputs": "1", "num_inputs": "1", "func_name": "fused_nn_pad_32", "flatten_data": "0"}, "inputs": [[513, 0, 0]]}, {"op": "null", "name": "p244", "inputs": []}, {"op": "tvm_op", "name": "fused_cast_layout_transform_132", "attrs": {"num_outputs": "1", "num_inputs": "1", "func_name": "fused_cast_layout_transform_13", "flatten_data": "0"}, "inputs": [[514, 0, 0]]}, {"op": "tvm_op", "name": "fused_sum_282", "attrs": {"num_outputs": "1", "num_inputs": "1", "func_name": "fused_sum_28", "flatten_data": "0"}, "inputs": [[516, 0, 0]]}, {"op": "tvm_op", "name": "fused_multiply_162", "attrs": {"num_outputs": "1", "num_inputs": "1", "func_name": "fused_multiply_16", "flatten_data": "0"}, "inputs": [[517, 0, 0]]}, {"op": "tvm_op", "name": "fused_nn_avg_pool2d_multiply_26", "attrs": {"num_outputs": "1", "num_inputs": "1", "func_name": "fused_nn_avg_pool2d_multiply_26", "flatten_data": "0"}, "inputs": [[518, 0, 0]]}, {"op": "tvm_op", "name": "fused_layout_transform_553", "attrs": {"num_outputs": "1", "num_inputs": "1", "func_name": "fused_layout_transform_55", "flatten_data": "0"}, "inputs": [[519, 0, 0]]}, {"op": "null", "name": "p245", "inputs": []}, {"op": "null", "name": "p246", "inputs": []}, {"op": "null", "name": "p247", "inputs": []}, {"op": "null", "name": "p248", "inputs": []}, {"op": "tvm_op", "name": "fused_cast_subtract_fixed_point_multiply_add_nn_contrib_conv2d_NCHWc_subtract_ad_13352175223490720149__1", "attrs": {"num_outputs": "1", "num_inputs": "8", "func_name": "fused_cast_subtract_fixed_point_multiply_add_nn_contrib_conv2d_NCHWc_subtract_ad_13352175223490720149__1", "flatten_data": "0"}, "inputs": [[504, 0, 0], [514, 0, 0], [515, 0, 0], [520, 0, 0], [521, 0, 0], [522, 0, 0], [523, 0, 0], [524, 0, 0]]}, {"op": "null", "name": "p249", "inputs": []}, {"op": "tvm_op", "name": "fused_cast_layout_transform_123", "attrs": {"num_outputs": "1", "num_inputs": "1", "func_name": "fused_cast_layout_transform_12", "flatten_data": "0"}, "inputs": [[525, 0, 0]]}, {"op": "tvm_op", "name": "fused_sum_273", "attrs": {"num_outputs": "1", "num_inputs": "1", "func_name": "fused_sum_27", "flatten_data": "0"}, "inputs": [[527, 0, 0]]}, {"op": "tvm_op", "name": "fused_multiply_layout_transform_20", "attrs": {"num_outputs": "1", "num_inputs": "1", "func_name": "fused_multiply_layout_transform_20", "flatten_data": "0"}, "inputs": [[528, 0, 0]]}, {"op": "null", "name": "p250", "inputs": []}, {"op": "null", "name": "p251", "inputs": []}, {"op": "null", "name": "p252", "inputs": []}, {"op": "null", "name": "p253", "inputs": []}, {"op": "tvm_op", "name": "fused_nn_contrib_conv2d_NCHWc_subtract_add_add_cast_fixed_point_multiply_add_cli_13071055640516155715__43", "attrs": {"num_outputs": "1", "num_inputs": "7", "func_name": "fused_nn_contrib_conv2d_NCHWc_subtract_add_add_cast_fixed_point_multiply_add_cli_13071055640516155715__43", "flatten_data": "0"}, "inputs": [[525, 0, 0], [526, 0, 0], [529, 0, 0], [530, 0, 0], [531, 0, 0], [532, 0, 0], [533, 0, 0]]}, {"op": "tvm_op", "name": "fused_nn_pad_33", "attrs": {"num_outputs": "1", "num_inputs": "1", "func_name": "fused_nn_pad_33", "flatten_data": "0"}, "inputs": [[534, 0, 0]]}, {"op": "null", "name": "p254", "inputs": []}, {"op": "tvm_op", "name": "fused_cast_layout_transform_133", "attrs": {"num_outputs": "1", "num_inputs": "1", "func_name": "fused_cast_layout_transform_13", "flatten_data": "0"}, "inputs": [[535, 0, 0]]}, {"op": "tvm_op", "name": "fused_sum_283", "attrs": {"num_outputs": "1", "num_inputs": "1", "func_name": "fused_sum_28", "flatten_data": "0"}, "inputs": [[537, 0, 0]]}, {"op": "tvm_op", "name": "fused_multiply_163", "attrs": {"num_outputs": "1", "num_inputs": "1", "func_name": "fused_multiply_16", "flatten_data": "0"}, "inputs": [[538, 0, 0]]}, {"op": "tvm_op", "name": "fused_nn_avg_pool2d_multiply_27", "attrs": {"num_outputs": "1", "num_inputs": "1", "func_name": "fused_nn_avg_pool2d_multiply_27", "flatten_data": "0"}, "inputs": [[539, 0, 0]]}, {"op": "tvm_op", "name": "fused_layout_transform_554", "attrs": {"num_outputs": "1", "num_inputs": "1", "func_name": "fused_layout_transform_55", "flatten_data": "0"}, "inputs": [[540, 0, 0]]}, {"op": "null", "name": "p255", "inputs": []}, {"op": "null", "name": "p256", "inputs": []}, {"op": "null", "name": "p257", "inputs": []}, {"op": "null", "name": "p258", "inputs": []}, {"op": "tvm_op", "name": "fused_cast_subtract_fixed_point_multiply_add_nn_contrib_conv2d_NCHWc_subtract_ad_13352175223490720149_", "attrs": {"num_outputs": "1", "num_inputs": "8", "func_name": "fused_cast_subtract_fixed_point_multiply_add_nn_contrib_conv2d_NCHWc_subtract_ad_13352175223490720149_", "flatten_data": "0"}, "inputs": [[525, 0, 0], [535, 0, 0], [536, 0, 0], [541, 0, 0], [542, 0, 0], [543, 0, 0], [544, 0, 0], [545, 0, 0]]}, {"op": "null", "name": "p259", "inputs": []}, {"op": "tvm_op", "name": "fused_cast_layout_transform_124", "attrs": {"num_outputs": "1", "num_inputs": "1", "func_name": "fused_cast_layout_transform_12", "flatten_data": "0"}, "inputs": [[546, 0, 0]]}, {"op": "tvm_op", "name": "fused_sum_274", "attrs": {"num_outputs": "1", "num_inputs": "1", "func_name": "fused_sum_27", "flatten_data": "0"}, "inputs": [[548, 0, 0]]}, {"op": "tvm_op", "name": "fused_multiply_layout_transform_21", "attrs": {"num_outputs": "1", "num_inputs": "1", "func_name": "fused_multiply_layout_transform_21", "flatten_data": "0"}, "inputs": [[549, 0, 0]]}, {"op": "null", "name": "p260", "inputs": []}, {"op": "null", "name": "p261", "inputs": []}, {"op": "null", "name": "p262", "inputs": []}, {"op": "null", "name": "p263", "inputs": []}, {"op": "tvm_op", "name": "fused_nn_contrib_conv2d_NCHWc_subtract_add_add_cast_fixed_point_multiply_add_cli_13071055640516155715__17", "attrs": {"num_outputs": "1", "num_inputs": "7", "func_name": "fused_nn_contrib_conv2d_NCHWc_subtract_add_add_cast_fixed_point_multiply_add_cli_13071055640516155715__17", "flatten_data": "0"}, "inputs": [[546, 0, 0], [547, 0, 0], [550, 0, 0], [551, 0, 0], [552, 0, 0], [553, 0, 0], [554, 0, 0]]}, {"op": "tvm_op", "name": "fused_nn_pad_6", "attrs": {"num_outputs": "1", "num_inputs": "1", "func_name": "fused_nn_pad_6", "flatten_data": "0"}, "inputs": [[555, 0, 0]]}, {"op": "null", "name": "p264", "inputs": []}, {"op": "tvm_op", "name": "fused_cast_layout_transform_134", "attrs": {"num_outputs": "1", "num_inputs": "1", "func_name": "fused_cast_layout_transform_13", "flatten_data": "0"}, "inputs": [[556, 0, 0]]}, {"op": "tvm_op", "name": "fused_sum_284", "attrs": {"num_outputs": "1", "num_inputs": "1", "func_name": "fused_sum_28", "flatten_data": "0"}, "inputs": [[558, 0, 0]]}, {"op": "tvm_op", "name": "fused_multiply_164", "attrs": {"num_outputs": "1", "num_inputs": "1", "func_name": "fused_multiply_16", "flatten_data": "0"}, "inputs": [[559, 0, 0]]}, {"op": "tvm_op", "name": "fused_nn_avg_pool2d_multiply_28", "attrs": {"num_outputs": "1", "num_inputs": "1", "func_name": "fused_nn_avg_pool2d_multiply_28", "flatten_data": "0"}, "inputs": [[560, 0, 0]]}, {"op": "tvm_op", "name": "fused_layout_transform_555", "attrs": {"num_outputs": "1", "num_inputs": "1", "func_name": "fused_layout_transform_55", "flatten_data": "0"}, "inputs": [[561, 0, 0]]}, {"op": "null", "name": "p265", "inputs": []}, {"op": "null", "name": "p266", "inputs": []}, {"op": "null", "name": "p267", "inputs": []}, {"op": "null", "name": "p268", "inputs": []}, {"op": "tvm_op", "name": "fused_nn_contrib_conv2d_NCHWc_subtract_add_add_cast_fixed_point_multiply_add_cli_13071055640516155715__16", "attrs": {"num_outputs": "1", "num_inputs": "7", "func_name": "fused_nn_contrib_conv2d_NCHWc_subtract_add_add_cast_fixed_point_multiply_add_cli_13071055640516155715__16", "flatten_data": "0"}, "inputs": [[556, 0, 0], [557, 0, 0], [562, 0, 0], [563, 0, 0], [564, 0, 0], [565, 0, 0], [566, 0, 0]]}, {"op": "null", "name": "p269", "inputs": []}, {"op": "tvm_op", "name": "fused_cast_layout_transform_125", "attrs": {"num_outputs": "1", "num_inputs": "1", "func_name": "fused_cast_layout_transform_12", "flatten_data": "0"}, "inputs": [[567, 0, 0]]}, {"op": "tvm_op", "name": "fused_sum_275", "attrs": {"num_outputs": "1", "num_inputs": "1", "func_name": "fused_sum_27", "flatten_data": "0"}, "inputs": [[569, 0, 0]]}, {"op": "tvm_op", "name": "fused_multiply_layout_transform_22", "attrs": {"num_outputs": "1", "num_inputs": "1", "func_name": "fused_multiply_layout_transform_22", "flatten_data": "0"}, "inputs": [[570, 0, 0]]}, {"op": "null", "name": "p270", "inputs": []}, {"op": "null", "name": "p271", "inputs": []}, {"op": "null", "name": "p272", "inputs": []}, {"op": "null", "name": "p273", "inputs": []}, {"op": "tvm_op", "name": "fused_nn_contrib_conv2d_NCHWc_subtract_add_add_cast_fixed_point_multiply_add_cli_13071055640516155715__15", "attrs": {"num_outputs": "1", "num_inputs": "7", "func_name": "fused_nn_contrib_conv2d_NCHWc_subtract_add_add_cast_fixed_point_multiply_add_cli_13071055640516155715__15", "flatten_data": "0"}, "inputs": [[567, 0, 0], [568, 0, 0], [571, 0, 0], [572, 0, 0], [573, 0, 0], [574, 0, 0], [575, 0, 0]]}, {"op": "tvm_op", "name": "fused_nn_pad_5", "attrs": {"num_outputs": "1", "num_inputs": "1", "func_name": "fused_nn_pad_5", "flatten_data": "0"}, "inputs": [[576, 0, 0]]}, {"op": "null", "name": "p274", "inputs": []}, {"op": "tvm_op", "name": "fused_cast_layout_transform_135", "attrs": {"num_outputs": "1", "num_inputs": "1", "func_name": "fused_cast_layout_transform_13", "flatten_data": "0"}, "inputs": [[577, 0, 0]]}, {"op": "tvm_op", "name": "fused_sum_285", "attrs": {"num_outputs": "1", "num_inputs": "1", "func_name": "fused_sum_28", "flatten_data": "0"}, "inputs": [[579, 0, 0]]}, {"op": "tvm_op", "name": "fused_multiply_165", "attrs": {"num_outputs": "1", "num_inputs": "1", "func_name": "fused_multiply_16", "flatten_data": "0"}, "inputs": [[580, 0, 0]]}, {"op": "tvm_op", "name": "fused_nn_avg_pool2d_multiply_29", "attrs": {"num_outputs": "1", "num_inputs": "1", "func_name": "fused_nn_avg_pool2d_multiply_29", "flatten_data": "0"}, "inputs": [[581, 0, 0]]}, {"op": "tvm_op", "name": "fused_layout_transform_556", "attrs": {"num_outputs": "1", "num_inputs": "1", "func_name": "fused_layout_transform_55", "flatten_data": "0"}, "inputs": [[582, 0, 0]]}, {"op": "null", "name": "p275", "inputs": []}, {"op": "null", "name": "p276", "inputs": []}, {"op": "null", "name": "p277", "inputs": []}, {"op": "null", "name": "p278", "inputs": []}, {"op": "tvm_op", "name": "fused_nn_contrib_conv2d_NCHWc_subtract_add_add_cast_fixed_point_multiply_add_cli_13071055640516155715__14", "attrs": {"num_outputs": "1", "num_inputs": "7", "func_name": "fused_nn_contrib_conv2d_NCHWc_subtract_add_add_cast_fixed_point_multiply_add_cli_13071055640516155715__14", "flatten_data": "0"}, "inputs": [[577, 0, 0], [578, 0, 0], [583, 0, 0], [584, 0, 0], [585, 0, 0], [586, 0, 0], [587, 0, 0]]}, {"op": "null", "name": "p279", "inputs": []}, {"op": "tvm_op", "name": "fused_cast_layout_transform_126", "attrs": {"num_outputs": "1", "num_inputs": "1", "func_name": "fused_cast_layout_transform_12", "flatten_data": "0"}, "inputs": [[588, 0, 0]]}, {"op": "tvm_op", "name": "fused_sum_276", "attrs": {"num_outputs": "1", "num_inputs": "1", "func_name": "fused_sum_27", "flatten_data": "0"}, "inputs": [[590, 0, 0]]}, {"op": "tvm_op", "name": "fused_multiply_layout_transform_23", "attrs": {"num_outputs": "1", "num_inputs": "1", "func_name": "fused_multiply_layout_transform_23", "flatten_data": "0"}, "inputs": [[591, 0, 0]]}, {"op": "null", "name": "p280", "inputs": []}, {"op": "null", "name": "p281", "inputs": []}, {"op": "null", "name": "p282", "inputs": []}, {"op": "null", "name": "p283", "inputs": []}, {"op": "tvm_op", "name": "fused_nn_contrib_conv2d_NCHWc_subtract_add_add_cast_fixed_point_multiply_add_cli_13071055640516155715__13", "attrs": {"num_outputs": "1", "num_inputs": "7", "func_name": "fused_nn_contrib_conv2d_NCHWc_subtract_add_add_cast_fixed_point_multiply_add_cli_13071055640516155715__13", "flatten_data": "0"}, "inputs": [[588, 0, 0], [589, 0, 0], [592, 0, 0], [593, 0, 0], [594, 0, 0], [595, 0, 0], [596, 0, 0]]}, {"op": "null", "name": "p284", "inputs": []}, {"op": "tvm_op", "name": "fused_cast_layout_transform_14", "attrs": {"num_outputs": "1", "num_inputs": "1", "func_name": "fused_cast_layout_transform_14", "flatten_data": "0"}, "inputs": [[597, 0, 0]]}, {"op": "tvm_op", "name": "fused_sum_29", "attrs": {"num_outputs": "1", "num_inputs": "1", "func_name": "fused_sum_29", "flatten_data": "0"}, "inputs": [[599, 0, 0]]}, {"op": "tvm_op", "name": "fused_multiply_layout_transform_24", "attrs": {"num_outputs": "1", "num_inputs": "1", "func_name": "fused_multiply_layout_transform_24", "flatten_data": "0"}, "inputs": [[600, 0, 0]]}, {"op": "null", "name": "p285", "inputs": []}, {"op": "null", "name": "p286", "inputs": []}, {"op": "null", "name": "p287", "inputs": []}, {"op": "null", "name": "p288", "inputs": []}, {"op": "tvm_op", "name": "fused_nn_contrib_conv2d_NCHWc_subtract_add_add_cast_fixed_point_multiply_add_cli_13071055640516155715__12", "attrs": {"num_outputs": "1", "num_inputs": "7", "func_name": "fused_nn_contrib_conv2d_NCHWc_subtract_add_add_cast_fixed_point_multiply_add_cli_13071055640516155715__12", "flatten_data": "0"}, "inputs": [[597, 0, 0], [598, 0, 0], [601, 0, 0], [602, 0, 0], [603, 0, 0], [604, 0, 0], [605, 0, 0]]}, {"op": "tvm_op", "name": "fused_layout_transform_layout_transform_image_resize_cast_subtract_fixed_point_m_13929948026843426333_", "attrs": {"num_outputs": "1", "num_inputs": "2", "func_name": "fused_layout_transform_layout_transform_image_resize_cast_subtract_fixed_point_m_13929948026843426333_", "flatten_data": "0"}, "inputs": [[606, 0, 0], [450, 0, 0]]}, {"op": "tvm_op", "name": "fused_layout_transform_48", "attrs": {"num_outputs": "1", "num_inputs": "1", "func_name": "fused_layout_transform_48", "flatten_data": "0"}, "inputs": [[607, 0, 0]]}, {"op": "null", "name": "p289", "inputs": []}, {"op": "tvm_op", "name": "fused_cast_sum_1", "attrs": {"num_outputs": "1", "num_inputs": "1", "func_name": "fused_cast_sum_1", "flatten_data": "0"}, "inputs": [[607, 0, 0]]}, {"op": "tvm_op", "name": "fused_multiply_layout_transform_25", "attrs": {"num_outputs": "1", "num_inputs": "1", "func_name": "fused_multiply_layout_transform_25", "flatten_data": "0"}, "inputs": [[610, 0, 0]]}, {"op": "null", "name": "p290", "inputs": []}, {"op": "null", "name": "p291", "inputs": []}, {"op": "null", "name": "p292", "inputs": []}, {"op": "null", "name": "p293", "inputs": []}, {"op": "tvm_op", "name": "fused_nn_contrib_conv2d_NCHWc_subtract_add_add_cast_fixed_point_multiply_add_cli_13071055640516155715__11", "attrs": {"num_outputs": "1", "num_inputs": "7", "func_name": "fused_nn_contrib_conv2d_NCHWc_subtract_add_add_cast_fixed_point_multiply_add_cli_13071055640516155715__11", "flatten_data": "0"}, "inputs": [[608, 0, 0], [609, 0, 0], [611, 0, 0], [612, 0, 0], [613, 0, 0], [614, 0, 0], [615, 0, 0]]}, {"op": "tvm_op", "name": "fused_nn_pad_4", "attrs": {"num_outputs": "1", "num_inputs": "1", "func_name": "fused_nn_pad_4", "flatten_data": "0"}, "inputs": [[616, 0, 0]]}, {"op": "null", "name": "p294", "inputs": []}, {"op": "tvm_op", "name": "fused_cast_layout_transform_108", "attrs": {"num_outputs": "1", "num_inputs": "1", "func_name": "fused_cast_layout_transform_10", "flatten_data": "0"}, "inputs": [[617, 0, 0]]}, {"op": "tvm_op", "name": "fused_sum_258", "attrs": {"num_outputs": "1", "num_inputs": "1", "func_name": "fused_sum_25", "flatten_data": "0"}, "inputs": [[619, 0, 0]]}, {"op": "tvm_op", "name": "fused_multiply_148", "attrs": {"num_outputs": "1", "num_inputs": "1", "func_name": "fused_multiply_14", "flatten_data": "0"}, "inputs": [[620, 0, 0]]}, {"op": "tvm_op", "name": "fused_nn_avg_pool2d_multiply_30", "attrs": {"num_outputs": "1", "num_inputs": "1", "func_name": "fused_nn_avg_pool2d_multiply_30", "flatten_data": "0"}, "inputs": [[621, 0, 0]]}, {"op": "tvm_op", "name": "fused_layout_transform_549", "attrs": {"num_outputs": "1", "num_inputs": "1", "func_name": "fused_layout_transform_54", "flatten_data": "0"}, "inputs": [[622, 0, 0]]}, {"op": "null", "name": "p295", "inputs": []}, {"op": "null", "name": "p296", "inputs": []}, {"op": "null", "name": "p297", "inputs": []}, {"op": "null", "name": "p298", "inputs": []}, {"op": "tvm_op", "name": "fused_nn_contrib_conv2d_NCHWc_subtract_add_add_cast_fixed_point_multiply_add_cli_13071055640516155715__10", "attrs": {"num_outputs": "1", "num_inputs": "7", "func_name": "fused_nn_contrib_conv2d_NCHWc_subtract_add_add_cast_fixed_point_multiply_add_cli_13071055640516155715__10", "flatten_data": "0"}, "inputs": [[617, 0, 0], [618, 0, 0], [623, 0, 0], [624, 0, 0], [625, 0, 0], [626, 0, 0], [627, 0, 0]]}, {"op": "null", "name": "p299", "inputs": []}, {"op": "tvm_op", "name": "fused_cast_layout_transform_97", "attrs": {"num_outputs": "1", "num_inputs": "1", "func_name": "fused_cast_layout_transform_9", "flatten_data": "0"}, "inputs": [[628, 0, 0]]}, {"op": "tvm_op", "name": "fused_sum_247", "attrs": {"num_outputs": "1", "num_inputs": "1", "func_name": "fused_sum_24", "flatten_data": "0"}, "inputs": [[630, 0, 0]]}, {"op": "tvm_op", "name": "fused_multiply_layout_transform_26", "attrs": {"num_outputs": "1", "num_inputs": "1", "func_name": "fused_multiply_layout_transform_26", "flatten_data": "0"}, "inputs": [[631, 0, 0]]}, {"op": "null", "name": "p300", "inputs": []}, {"op": "null", "name": "p301", "inputs": []}, {"op": "null", "name": "p302", "inputs": []}, {"op": "null", "name": "p303", "inputs": []}, {"op": "tvm_op", "name": "fused_nn_contrib_conv2d_NCHWc_subtract_add_add_cast_fixed_point_multiply_add_cli_13071055640516155715__9", "attrs": {"num_outputs": "1", "num_inputs": "7", "func_name": "fused_nn_contrib_conv2d_NCHWc_subtract_add_add_cast_fixed_point_multiply_add_cli_13071055640516155715__9", "flatten_data": "0"}, "inputs": [[628, 0, 0], [629, 0, 0], [632, 0, 0], [633, 0, 0], [634, 0, 0], [635, 0, 0], [636, 0, 0]]}, {"op": "tvm_op", "name": "fused_nn_pad_3", "attrs": {"num_outputs": "1", "num_inputs": "1", "func_name": "fused_nn_pad_3", "flatten_data": "0"}, "inputs": [[637, 0, 0]]}, {"op": "null", "name": "p304", "inputs": []}, {"op": "tvm_op", "name": "fused_cast_layout_transform_109", "attrs": {"num_outputs": "1", "num_inputs": "1", "func_name": "fused_cast_layout_transform_10", "flatten_data": "0"}, "inputs": [[638, 0, 0]]}, {"op": "tvm_op", "name": "fused_sum_259", "attrs": {"num_outputs": "1", "num_inputs": "1", "func_name": "fused_sum_25", "flatten_data": "0"}, "inputs": [[640, 0, 0]]}, {"op": "tvm_op", "name": "fused_multiply_149", "attrs": {"num_outputs": "1", "num_inputs": "1", "func_name": "fused_multiply_14", "flatten_data": "0"}, "inputs": [[641, 0, 0]]}, {"op": "tvm_op", "name": "fused_nn_avg_pool2d_multiply_31", "attrs": {"num_outputs": "1", "num_inputs": "1", "func_name": "fused_nn_avg_pool2d_multiply_31", "flatten_data": "0"}, "inputs": [[642, 0, 0]]}, {"op": "tvm_op", "name": "fused_layout_transform_5410", "attrs": {"num_outputs": "1", "num_inputs": "1", "func_name": "fused_layout_transform_54", "flatten_data": "0"}, "inputs": [[643, 0, 0]]}, {"op": "null", "name": "p305", "inputs": []}, {"op": "null", "name": "p306", "inputs": []}, {"op": "null", "name": "p307", "inputs": []}, {"op": "null", "name": "p308", "inputs": []}, {"op": "tvm_op", "name": "fused_nn_contrib_conv2d_NCHWc_subtract_add_add_cast_fixed_point_multiply_add_cli_13071055640516155715__8", "attrs": {"num_outputs": "1", "num_inputs": "7", "func_name": "fused_nn_contrib_conv2d_NCHWc_subtract_add_add_cast_fixed_point_multiply_add_cli_13071055640516155715__8", "flatten_data": "0"}, "inputs": [[638, 0, 0], [639, 0, 0], [644, 0, 0], [645, 0, 0], [646, 0, 0], [647, 0, 0], [648, 0, 0]]}, {"op": "null", "name": "p309", "inputs": []}, {"op": "tvm_op", "name": "fused_cast_layout_transform_98", "attrs": {"num_outputs": "1", "num_inputs": "1", "func_name": "fused_cast_layout_transform_9", "flatten_data": "0"}, "inputs": [[649, 0, 0]]}, {"op": "tvm_op", "name": "fused_sum_248", "attrs": {"num_outputs": "1", "num_inputs": "1", "func_name": "fused_sum_24", "flatten_data": "0"}, "inputs": [[651, 0, 0]]}, {"op": "tvm_op", "name": "fused_multiply_layout_transform_27", "attrs": {"num_outputs": "1", "num_inputs": "1", "func_name": "fused_multiply_layout_transform_27", "flatten_data": "0"}, "inputs": [[652, 0, 0]]}, {"op": "null", "name": "p310", "inputs": []}, {"op": "null", "name": "p311", "inputs": []}, {"op": "null", "name": "p312", "inputs": []}, {"op": "null", "name": "p313", "inputs": []}, {"op": "tvm_op", "name": "fused_nn_contrib_conv2d_NCHWc_subtract_add_add_cast_fixed_point_multiply_add_cli_13071055640516155715__7", "attrs": {"num_outputs": "1", "num_inputs": "7", "func_name": "fused_nn_contrib_conv2d_NCHWc_subtract_add_add_cast_fixed_point_multiply_add_cli_13071055640516155715__7", "flatten_data": "0"}, "inputs": [[649, 0, 0], [650, 0, 0], [653, 0, 0], [654, 0, 0], [655, 0, 0], [656, 0, 0], [657, 0, 0]]}, {"op": "null", "name": "p314", "inputs": []}, {"op": "tvm_op", "name": "fused_cast_layout_transform_15", "attrs": {"num_outputs": "1", "num_inputs": "1", "func_name": "fused_cast_layout_transform_15", "flatten_data": "0"}, "inputs": [[658, 0, 0]]}, {"op": "tvm_op", "name": "fused_sum_30", "attrs": {"num_outputs": "1", "num_inputs": "1", "func_name": "fused_sum_30", "flatten_data": "0"}, "inputs": [[660, 0, 0]]}, {"op": "tvm_op", "name": "fused_multiply_layout_transform_28", "attrs": {"num_outputs": "1", "num_inputs": "1", "func_name": "fused_multiply_layout_transform_28", "flatten_data": "0"}, "inputs": [[661, 0, 0]]}, {"op": "null", "name": "p315", "inputs": []}, {"op": "null", "name": "p316", "inputs": []}, {"op": "null", "name": "p317", "inputs": []}, {"op": "null", "name": "p318", "inputs": []}, {"op": "tvm_op", "name": "fused_nn_contrib_conv2d_NCHWc_subtract_add_add_cast_fixed_point_multiply_add_cli_13071055640516155715__6", "attrs": {"num_outputs": "1", "num_inputs": "7", "func_name": "fused_nn_contrib_conv2d_NCHWc_subtract_add_add_cast_fixed_point_multiply_add_cli_13071055640516155715__6", "flatten_data": "0"}, "inputs": [[658, 0, 0], [659, 0, 0], [662, 0, 0], [663, 0, 0], [664, 0, 0], [665, 0, 0], [666, 0, 0]]}, {"op": "tvm_op", "name": "fused_layout_transform_layout_transform_image_resize_cast_subtract_fixed_point_m_3813291018095954926_", "attrs": {"num_outputs": "1", "num_inputs": "2", "func_name": "fused_layout_transform_layout_transform_image_resize_cast_subtract_fixed_point_m_3813291018095954926_", "flatten_data": "0"}, "inputs": [[667, 0, 0], [273, 0, 0]]}, {"op": "tvm_op", "name": "fused_layout_transform_47", "attrs": {"num_outputs": "1", "num_inputs": "1", "func_name": "fused_layout_transform_47", "flatten_data": "0"}, "inputs": [[668, 0, 0]]}, {"op": "null", "name": "p319", "inputs": []}, {"op": "tvm_op", "name": "fused_cast_sum_2", "attrs": {"num_outputs": "1", "num_inputs": "1", "func_name": "fused_cast_sum_2", "flatten_data": "0"}, "inputs": [[668, 0, 0]]}, {"op": "tvm_op", "name": "fused_multiply_layout_transform_29", "attrs": {"num_outputs": "1", "num_inputs": "1", "func_name": "fused_multiply_layout_transform_29", "flatten_data": "0"}, "inputs": [[671, 0, 0]]}, {"op": "null", "name": "p320", "inputs": []}, {"op": "null", "name": "p321", "inputs": []}, {"op": "null", "name": "p322", "inputs": []}, {"op": "null", "name": "p323", "inputs": []}, {"op": "tvm_op", "name": "fused_nn_contrib_conv2d_NCHWc_subtract_add_add_cast_fixed_point_multiply_add_cli_13071055640516155715__5", "attrs": {"num_outputs": "1", "num_inputs": "7", "func_name": "fused_nn_contrib_conv2d_NCHWc_subtract_add_add_cast_fixed_point_multiply_add_cli_13071055640516155715__5", "flatten_data": "0"}, "inputs": [[669, 0, 0], [670, 0, 0], [672, 0, 0], [673, 0, 0], [674, 0, 0], [675, 0, 0], [676, 0, 0]]}, {"op": "tvm_op", "name": "fused_nn_pad_2", "attrs": {"num_outputs": "1", "num_inputs": "1", "func_name": "fused_nn_pad_2", "flatten_data": "0"}, "inputs": [[677, 0, 0]]}, {"op": "null", "name": "p324", "inputs": []}, {"op": "tvm_op", "name": "fused_cast_layout_transform_78", "attrs": {"num_outputs": "1", "num_inputs": "1", "func_name": "fused_cast_layout_transform_7", "flatten_data": "0"}, "inputs": [[678, 0, 0]]}, {"op": "tvm_op", "name": "fused_sum_228", "attrs": {"num_outputs": "1", "num_inputs": "1", "func_name": "fused_sum_22", "flatten_data": "0"}, "inputs": [[680, 0, 0]]}, {"op": "tvm_op", "name": "fused_multiply_128", "attrs": {"num_outputs": "1", "num_inputs": "1", "func_name": "fused_multiply_12", "flatten_data": "0"}, "inputs": [[681, 0, 0]]}, {"op": "tvm_op", "name": "fused_nn_avg_pool2d_multiply_32", "attrs": {"num_outputs": "1", "num_inputs": "1", "func_name": "fused_nn_avg_pool2d_multiply_32", "flatten_data": "0"}, "inputs": [[682, 0, 0]]}, {"op": "tvm_op", "name": "fused_layout_transform_5310", "attrs": {"num_outputs": "1", "num_inputs": "1", "func_name": "fused_layout_transform_53", "flatten_data": "0"}, "inputs": [[683, 0, 0]]}, {"op": "null", "name": "p325", "inputs": []}, {"op": "null", "name": "p326", "inputs": []}, {"op": "null", "name": "p327", "inputs": []}, {"op": "null", "name": "p328", "inputs": []}, {"op": "tvm_op", "name": "fused_nn_contrib_conv2d_NCHWc_subtract_add_add_cast_fixed_point_multiply_add_cli_13071055640516155715__4", "attrs": {"num_outputs": "1", "num_inputs": "7", "func_name": "fused_nn_contrib_conv2d_NCHWc_subtract_add_add_cast_fixed_point_multiply_add_cli_13071055640516155715__4", "flatten_data": "0"}, "inputs": [[678, 0, 0], [679, 0, 0], [684, 0, 0], [685, 0, 0], [686, 0, 0], [687, 0, 0], [688, 0, 0]]}, {"op": "null", "name": "p329", "inputs": []}, {"op": "tvm_op", "name": "fused_cast_layout_transform_68", "attrs": {"num_outputs": "1", "num_inputs": "1", "func_name": "fused_cast_layout_transform_6", "flatten_data": "0"}, "inputs": [[689, 0, 0]]}, {"op": "tvm_op", "name": "fused_sum_218", "attrs": {"num_outputs": "1", "num_inputs": "1", "func_name": "fused_sum_21", "flatten_data": "0"}, "inputs": [[691, 0, 0]]}, {"op": "tvm_op", "name": "fused_multiply_layout_transform_30", "attrs": {"num_outputs": "1", "num_inputs": "1", "func_name": "fused_multiply_layout_transform_30", "flatten_data": "0"}, "inputs": [[692, 0, 0]]}, {"op": "null", "name": "p330", "inputs": []}, {"op": "null", "name": "p331", "inputs": []}, {"op": "null", "name": "p332", "inputs": []}, {"op": "null", "name": "p333", "inputs": []}, {"op": "tvm_op", "name": "fused_nn_contrib_conv2d_NCHWc_subtract_add_add_cast_fixed_point_multiply_add_cli_13071055640516155715__3", "attrs": {"num_outputs": "1", "num_inputs": "7", "func_name": "fused_nn_contrib_conv2d_NCHWc_subtract_add_add_cast_fixed_point_multiply_add_cli_13071055640516155715__3", "flatten_data": "0"}, "inputs": [[689, 0, 0], [690, 0, 0], [693, 0, 0], [694, 0, 0], [695, 0, 0], [696, 0, 0], [697, 0, 0]]}, {"op": "tvm_op", "name": "fused_nn_pad_1", "attrs": {"num_outputs": "1", "num_inputs": "1", "func_name": "fused_nn_pad_1", "flatten_data": "0"}, "inputs": [[698, 0, 0]]}, {"op": "null", "name": "p334", "inputs": []}, {"op": "tvm_op", "name": "fused_cast_layout_transform_79", "attrs": {"num_outputs": "1", "num_inputs": "1", "func_name": "fused_cast_layout_transform_7", "flatten_data": "0"}, "inputs": [[699, 0, 0]]}, {"op": "tvm_op", "name": "fused_sum_229", "attrs": {"num_outputs": "1", "num_inputs": "1", "func_name": "fused_sum_22", "flatten_data": "0"}, "inputs": [[701, 0, 0]]}, {"op": "tvm_op", "name": "fused_multiply_129", "attrs": {"num_outputs": "1", "num_inputs": "1", "func_name": "fused_multiply_12", "flatten_data": "0"}, "inputs": [[702, 0, 0]]}, {"op": "tvm_op", "name": "fused_nn_avg_pool2d_multiply_33", "attrs": {"num_outputs": "1", "num_inputs": "1", "func_name": "fused_nn_avg_pool2d_multiply_33", "flatten_data": "0"}, "inputs": [[703, 0, 0]]}, {"op": "tvm_op", "name": "fused_layout_transform_5311", "attrs": {"num_outputs": "1", "num_inputs": "1", "func_name": "fused_layout_transform_53", "flatten_data": "0"}, "inputs": [[704, 0, 0]]}, {"op": "null", "name": "p335", "inputs": []}, {"op": "null", "name": "p336", "inputs": []}, {"op": "null", "name": "p337", "inputs": []}, {"op": "null", "name": "p338", "inputs": []}, {"op": "tvm_op", "name": "fused_nn_contrib_conv2d_NCHWc_subtract_add_add_cast_fixed_point_multiply_add_cli_13071055640516155715__2", "attrs": {"num_outputs": "1", "num_inputs": "7", "func_name": "fused_nn_contrib_conv2d_NCHWc_subtract_add_add_cast_fixed_point_multiply_add_cli_13071055640516155715__2", "flatten_data": "0"}, "inputs": [[699, 0, 0], [700, 0, 0], [705, 0, 0], [706, 0, 0], [707, 0, 0], [708, 0, 0], [709, 0, 0]]}, {"op": "null", "name": "p339", "inputs": []}, {"op": "tvm_op", "name": "fused_cast_layout_transform_69", "attrs": {"num_outputs": "1", "num_inputs": "1", "func_name": "fused_cast_layout_transform_6", "flatten_data": "0"}, "inputs": [[710, 0, 0]]}, {"op": "tvm_op", "name": "fused_sum_219", "attrs": {"num_outputs": "1", "num_inputs": "1", "func_name": "fused_sum_21", "flatten_data": "0"}, "inputs": [[712, 0, 0]]}, {"op": "tvm_op", "name": "fused_multiply_layout_transform_31", "attrs": {"num_outputs": "1", "num_inputs": "1", "func_name": "fused_multiply_layout_transform_31", "flatten_data": "0"}, "inputs": [[713, 0, 0]]}, {"op": "null", "name": "p340", "inputs": []}, {"op": "null", "name": "p341", "inputs": []}, {"op": "null", "name": "p342", "inputs": []}, {"op": "null", "name": "p343", "inputs": []}, {"op": "tvm_op", "name": "fused_nn_contrib_conv2d_NCHWc_subtract_add_add_cast_fixed_point_multiply_add_cli_13071055640516155715__1", "attrs": {"num_outputs": "1", "num_inputs": "7", "func_name": "fused_nn_contrib_conv2d_NCHWc_subtract_add_add_cast_fixed_point_multiply_add_cli_13071055640516155715__1", "flatten_data": "0"}, "inputs": [[710, 0, 0], [711, 0, 0], [714, 0, 0], [715, 0, 0], [716, 0, 0], [717, 0, 0], [718, 0, 0]]}, {"op": "tvm_op", "name": "fused_nn_pad", "attrs": {"num_outputs": "1", "num_inputs": "1", "func_name": "fused_nn_pad", "flatten_data": "0"}, "inputs": [[719, 0, 0]]}, {"op": "null", "name": "p344", "inputs": []}, {"op": "tvm_op", "name": "fused_cast_layout_transform_710", "attrs": {"num_outputs": "1", "num_inputs": "1", "func_name": "fused_cast_layout_transform_7", "flatten_data": "0"}, "inputs": [[720, 0, 0]]}, {"op": "tvm_op", "name": "fused_sum_2210", "attrs": {"num_outputs": "1", "num_inputs": "1", "func_name": "fused_sum_22", "flatten_data": "0"}, "inputs": [[722, 0, 0]]}, {"op": "tvm_op", "name": "fused_multiply_1210", "attrs": {"num_outputs": "1", "num_inputs": "1", "func_name": "fused_multiply_12", "flatten_data": "0"}, "inputs": [[723, 0, 0]]}, {"op": "tvm_op", "name": "fused_nn_avg_pool2d_multiply_34", "attrs": {"num_outputs": "1", "num_inputs": "1", "func_name": "fused_nn_avg_pool2d_multiply_34", "flatten_data": "0"}, "inputs": [[724, 0, 0]]}, {"op": "tvm_op", "name": "fused_layout_transform_5312", "attrs": {"num_outputs": "1", "num_inputs": "1", "func_name": "fused_layout_transform_53", "flatten_data": "0"}, "inputs": [[725, 0, 0]]}, {"op": "null", "name": "p345", "inputs": []}, {"op": "null", "name": "p346", "inputs": []}, {"op": "null", "name": "p347", "inputs": []}, {"op": "null", "name": "p348", "inputs": []}, {"op": "tvm_op", "name": "fused_nn_contrib_conv2d_NCHWc_subtract_add_add_cast_fixed_point_multiply_add_cli_13071055640516155715_", "attrs": {"num_outputs": "1", "num_inputs": "7", "func_name": "fused_nn_contrib_conv2d_NCHWc_subtract_add_add_cast_fixed_point_multiply_add_cli_13071055640516155715_", "flatten_data": "0"}, "inputs": [[720, 0, 0], [721, 0, 0], [726, 0, 0], [727, 0, 0], [728, 0, 0], [729, 0, 0], [730, 0, 0]]}, {"op": "tvm_op", "name": "fused_layout_transform_46", "attrs": {"num_outputs": "1", "num_inputs": "1", "func_name": "fused_layout_transform_46", "flatten_data": "0"}, "inputs": [[731, 0, 0]]}, {"op": "null", "name": "p349", "inputs": []}, {"op": "tvm_op", "name": "fused_cast_layout_transform_610", "attrs": {"num_outputs": "1", "num_inputs": "1", "func_name": "fused_cast_layout_transform_6", "flatten_data": "0"}, "inputs": [[731, 0, 0]]}, {"op": "tvm_op", "name": "fused_sum_2110", "attrs": {"num_outputs": "1", "num_inputs": "1", "func_name": "fused_sum_21", "flatten_data": "0"}, "inputs": [[734, 0, 0]]}, {"op": "tvm_op", "name": "fused_multiply_layout_transform_32", "attrs": {"num_outputs": "1", "num_inputs": "1", "func_name": "fused_multiply_layout_transform_32", "flatten_data": "0"}, "inputs": [[735, 0, 0]]}, {"op": "null", "name": "p350", "inputs": []}, {"op": "null", "name": "p351", "inputs": []}, {"op": "tvm_op", "name": "fused_nn_contrib_conv2d_NCHWc_subtract_add_add_cast_fixed_point_multiply_add_cli_568042155196347679_", "attrs": {"num_outputs": "1", "num_inputs": "5", "func_name": "fused_nn_contrib_conv2d_NCHWc_subtract_add_add_cast_fixed_point_multiply_add_cli_568042155196347679_", "flatten_data": "0"}, "inputs": [[732, 0, 0], [733, 0, 0], [736, 0, 0], [737, 0, 0], [738, 0, 0]]}, {"op": "tvm_op", "name": "fused_layout_transform_layout_transform", "attrs": {"num_outputs": "1", "num_inputs": "1", "func_name": "fused_layout_transform_layout_transform", "flatten_data": "0"}, "inputs": [[739, 0, 0]]}, {"op": "tvm_op", "name": "fused_nn_pad_34", "attrs": {"num_outputs": "1", "num_inputs": "1", "func_name": "fused_nn_pad_34", "flatten_data": "0"}, "inputs": [[658, 0, 0]]}, {"op": "null", "name": "p352", "inputs": []}, {"op": "tvm_op", "name": "fused_cast_layout_transform_1010", "attrs": {"num_outputs": "1", "num_inputs": "1", "func_name": "fused_cast_layout_transform_10", "flatten_data": "0"}, "inputs": [[741, 0, 0]]}, {"op": "tvm_op", "name": "fused_sum_2510", "attrs": {"num_outputs": "1", "num_inputs": "1", "func_name": "fused_sum_25", "flatten_data": "0"}, "inputs": [[743, 0, 0]]}, {"op": "tvm_op", "name": "fused_multiply_1410", "attrs": {"num_outputs": "1", "num_inputs": "1", "func_name": "fused_multiply_14", "flatten_data": "0"}, "inputs": [[744, 0, 0]]}, {"op": "tvm_op", "name": "fused_nn_avg_pool2d_multiply_35", "attrs": {"num_outputs": "1", "num_inputs": "1", "func_name": "fused_nn_avg_pool2d_multiply_35", "flatten_data": "0"}, "inputs": [[745, 0, 0]]}, {"op": "tvm_op", "name": "fused_layout_transform_5411", "attrs": {"num_outputs": "1", "num_inputs": "1", "func_name": "fused_layout_transform_54", "flatten_data": "0"}, "inputs": [[746, 0, 0]]}, {"op": "null", "name": "p353", "inputs": []}, {"op": "null", "name": "p354", "inputs": []}, {"op": "null", "name": "p355", "inputs": []}, {"op": "null", "name": "p356", "inputs": []}, {"op": "tvm_op", "name": "fused_nn_contrib_conv2d_NCHWc_subtract_add_add_cast_fixed_point_multiply_add_cli_13071055640516155715__44", "attrs": {"num_outputs": "1", "num_inputs": "7", "func_name": "fused_nn_contrib_conv2d_NCHWc_subtract_add_add_cast_fixed_point_multiply_add_cli_13071055640516155715__44", "flatten_data": "0"}, "inputs": [[741, 0, 0], [742, 0, 0], [747, 0, 0], [748, 0, 0], [749, 0, 0], [750, 0, 0], [751, 0, 0]]}, {"op": "tvm_op", "name": "fused_layout_transform_56", "attrs": {"num_outputs": "1", "num_inputs": "1", "func_name": "fused_layout_transform_56", "flatten_data": "0"}, "inputs": [[752, 0, 0]]}, {"op": "null", "name": "p357", "inputs": []}, {"op": "tvm_op", "name": "fused_cast_layout_transform_99", "attrs": {"num_outputs": "1", "num_inputs": "1", "func_name": "fused_cast_layout_transform_9", "flatten_data": "0"}, "inputs": [[752, 0, 0]]}, {"op": "tvm_op", "name": "fused_sum_249", "attrs": {"num_outputs": "1", "num_inputs": "1", "func_name": "fused_sum_24", "flatten_data": "0"}, "inputs": [[755, 0, 0]]}, {"op": "tvm_op", "name": "fused_multiply_layout_transform_33", "attrs": {"num_outputs": "1", "num_inputs": "1", "func_name": "fused_multiply_layout_transform_33", "flatten_data": "0"}, "inputs": [[756, 0, 0]]}, {"op": "null", "name": "p358", "inputs": []}, {"op": "null", "name": "p359", "inputs": []}, {"op": "tvm_op", "name": "fused_nn_contrib_conv2d_NCHWc_subtract_add_add_cast_fixed_point_multiply_add_cli_568042155196347679__1", "attrs": {"num_outputs": "1", "num_inputs": "5", "func_name": "fused_nn_contrib_conv2d_NCHWc_subtract_add_add_cast_fixed_point_multiply_add_cli_568042155196347679__1", "flatten_data": "0"}, "inputs": [[753, 0, 0], [754, 0, 0], [757, 0, 0], [758, 0, 0], [759, 0, 0]]}, {"op": "tvm_op", "name": "fused_layout_transform_layout_transform_1", "attrs": {"num_outputs": "1", "num_inputs": "1", "func_name": "fused_layout_transform_layout_transform_1", "flatten_data": "0"}, "inputs": [[760, 0, 0]]}, {"op": "tvm_op", "name": "fused_nn_pad_35", "attrs": {"num_outputs": "1", "num_inputs": "1", "func_name": "fused_nn_pad_35", "flatten_data": "0"}, "inputs": [[597, 0, 0]]}, {"op": "null", "name": "p360", "inputs": []}, {"op": "tvm_op", "name": "fused_cast_layout_transform_136", "attrs": {"num_outputs": "1", "num_inputs": "1", "func_name": "fused_cast_layout_transform_13", "flatten_data": "0"}, "inputs": [[762, 0, 0]]}, {"op": "tvm_op", "name": "fused_sum_286", "attrs": {"num_outputs": "1", "num_inputs": "1", "func_name": "fused_sum_28", "flatten_data": "0"}, "inputs": [[764, 0, 0]]}, {"op": "tvm_op", "name": "fused_multiply_166", "attrs": {"num_outputs": "1", "num_inputs": "1", "func_name": "fused_multiply_16", "flatten_data": "0"}, "inputs": [[765, 0, 0]]}, {"op": "tvm_op", "name": "fused_nn_avg_pool2d_multiply_36", "attrs": {"num_outputs": "1", "num_inputs": "1", "func_name": "fused_nn_avg_pool2d_multiply_36", "flatten_data": "0"}, "inputs": [[766, 0, 0]]}, {"op": "tvm_op", "name": "fused_layout_transform_557", "attrs": {"num_outputs": "1", "num_inputs": "1", "func_name": "fused_layout_transform_55", "flatten_data": "0"}, "inputs": [[767, 0, 0]]}, {"op": "null", "name": "p361", "inputs": []}, {"op": "null", "name": "p362", "inputs": []}, {"op": "null", "name": "p363", "inputs": []}, {"op": "null", "name": "p364", "inputs": []}, {"op": "tvm_op", "name": "fused_nn_contrib_conv2d_NCHWc_subtract_add_add_cast_fixed_point_multiply_add_cli_13071055640516155715__45", "attrs": {"num_outputs": "1", "num_inputs": "7", "func_name": "fused_nn_contrib_conv2d_NCHWc_subtract_add_add_cast_fixed_point_multiply_add_cli_13071055640516155715__45", "flatten_data": "0"}, "inputs": [[762, 0, 0], [763, 0, 0], [768, 0, 0], [769, 0, 0], [770, 0, 0], [771, 0, 0], [772, 0, 0]]}, {"op": "tvm_op", "name": "fused_layout_transform_57", "attrs": {"num_outputs": "1", "num_inputs": "1", "func_name": "fused_layout_transform_57", "flatten_data": "0"}, "inputs": [[773, 0, 0]]}, {"op": "null", "name": "p365", "inputs": []}, {"op": "tvm_op", "name": "fused_cast_layout_transform_127", "attrs": {"num_outputs": "1", "num_inputs": "1", "func_name": "fused_cast_layout_transform_12", "flatten_data": "0"}, "inputs": [[773, 0, 0]]}, {"op": "tvm_op", "name": "fused_sum_277", "attrs": {"num_outputs": "1", "num_inputs": "1", "func_name": "fused_sum_27", "flatten_data": "0"}, "inputs": [[776, 0, 0]]}, {"op": "tvm_op", "name": "fused_multiply_layout_transform_34", "attrs": {"num_outputs": "1", "num_inputs": "1", "func_name": "fused_multiply_layout_transform_34", "flatten_data": "0"}, "inputs": [[777, 0, 0]]}, {"op": "null", "name": "p366", "inputs": []}, {"op": "null", "name": "p367", "inputs": []}, {"op": "tvm_op", "name": "fused_nn_contrib_conv2d_NCHWc_subtract_add_add_cast_fixed_point_multiply_add_cli_568042155196347679__2", "attrs": {"num_outputs": "1", "num_inputs": "5", "func_name": "fused_nn_contrib_conv2d_NCHWc_subtract_add_add_cast_fixed_point_multiply_add_cli_568042155196347679__2", "flatten_data": "0"}, "inputs": [[774, 0, 0], [775, 0, 0], [778, 0, 0], [779, 0, 0], [780, 0, 0]]}, {"op": "tvm_op", "name": "fused_layout_transform_layout_transform_2", "attrs": {"num_outputs": "1", "num_inputs": "1", "func_name": "fused_layout_transform_layout_transform_2", "flatten_data": "0"}, "inputs": [[781, 0, 0]]}], "arg_nodes": [0, 3, 8, 9, 10, 13, 14, 15, 16, 17, 19, 23, 24, 25, 26, 29, 35, 36, 37, 38, 41, 47, 48, 49, 50, 52, 56, 57, 58, 59, 62, 68, 69, 70, 71, 73, 77, 78, 79, 80, 83, 89, 90, 91, 92, 95, 101, 102, 103, 104, 106, 110, 111, 112, 113, 116, 122, 123, 124, 125, 127, 131, 132, 133, 134, 137, 143, 144, 145, 146, 148, 152, 153, 154, 155, 158, 164, 165, 166, 167, 169, 173, 174, 175, 176, 179, 185, 186, 187, 188, 190, 194, 195, 196, 197, 200, 206, 207, 208, 209, 211, 215, 216, 217, 218, 221, 227, 228, 229, 230, 232, 236, 237, 238, 239, 242, 248, 249, 250, 251, 253, 257, 258, 259, 260, 263, 269, 270, 271, 272, 275, 281, 282, 283, 284, 286, 290, 291, 292, 293, 296, 302, 303, 304, 305, 307, 311, 312, 313, 314, 317, 323, 324, 325, 326, 328, 332, 333, 334, 335, 338, 344, 345, 346, 347, 349, 350, 351, 352, 353, 356, 362, 363, 364, 365, 367, 371, 372, 373, 374, 377, 383, 384, 385, 386, 388, 392, 393, 394, 395, 398, 404, 405, 406, 407, 409, 413, 414, 415, 416, 419, 425, 426, 427, 428, 430, 434, 435, 436, 437, 440, 446, 447, 448, 449, 452, 458, 459, 460, 461, 463, 467, 468, 469, 470, 473, 479, 480, 481, 482, 484, 488, 489, 490, 491, 494, 500, 501, 502, 503, 505, 509, 510, 511, 512, 515, 521, 522, 523, 524, 526, 530, 531, 532, 533, 536, 542, 543, 544, 545, 547, 551, 552, 553, 554, 557, 563, 564, 565, 566, 568, 572, 573, 574, 575, 578, 584, 585, 586, 587, 589, 593, 594, 595, 596, 598, 602, 603, 604, 605, 609, 612, 613, 614, 615, 618, 624, 625, 626, 627, 629, 633, 634, 635, 636, 639, 645, 646, 647, 648, 650, 654, 655, 656, 657, 659, 663, 664, 665, 666, 670, 673, 674, 675, 676, 679, 685, 686, 687, 688, 690, 694, 695, 696, 697, 700, 706, 707, 708, 709, 711, 715, 716, 717, 718, 721, 727, 728, 729, 730, 733, 737, 738, 742, 748, 749, 750, 751, 754, 758, 759, 763, 769, 770, 771, 772, 775, 779, 780], "heads": [[740, 0, 0], [761, 0, 0], [782, 0, 0]], "attrs": {"dltype": ["list_str", ["uint8", "uint8", "uint8", "int8", "int32", "int32", "int32", "int32", "int32", "int32", "int32", "uint8", "uint8", "int8", "int32", "int32", "int32", "int32", "uint8", "int8", "int32", "int32", "int32", "int32", "int32", "int32", "int32", "uint8", "uint8", "int8", "int32", "int32", "int32", "int32", "int32", "int32", "int32", "int32", "int32", "uint8", "uint8", "int8", "int32", "int32", "int32", "int32", "int32", "int32", "int32", "int32", "int32", "uint8", "int8", "int32", "int32", "int32", "int32", "int32", "int32", "int32", "uint8", "uint8", "int8", "int32", "int32", "int32", "int32", "int32", "int32", "int32", "int32", "int32", "uint8", "int8", "int32", "int32", "int32", "int32", "int32", "int32", "int32", "uint8", "uint8", "int8", "int32", "int32", "int32", "int32", "int32", "int32", "int32", "int32", "int32", "uint8", "uint8", "int8", "int32", "int32", "int32", "int32", "int32", "int32", "int32", "int32", "int32", "uint8", "int8", "int32", "int32", "int32", "int32", "int32", "int32", "int32", "uint8", "uint8", "int8", "int32", "int32", "int32", "int32", "int32", "int32", "int32", "int32", "int32", "uint8", "int8", "int32", "int32", "int32", "int32", "int32", "int32", "int32", "uint8", "uint8", "int8", "int32", "int32", "int32", "int32", "int32", "int32", "int32", "int32", "int32", "uint8", "int8", "int32", "int32", "int32", "int32", "int32", "int32", "int32", "uint8", "uint8", "int8", "int32", "int32", "int32", "int32", "int32", "int32", "int32", "int32", "int32", "uint8", "int8", "int32", "int32", "int32", "int32", "int32", "int32", "int32", "uint8", "uint8", "int8", "int32", "int32", "int32", "int32", "int32", "int32", "int32", "int32", "int32", "uint8", "int8", "int32", "int32", "int32", "int32", "int32", "int32", "int32", "uint8", "uint8", "int8", "int32", "int32", "int32", "int32", "int32", "int32", "int32", "int32", "int32", "uint8", "int8", "int32", "int32", "int32", "int32", "int32", "int32", "int32", "uint8", "uint8", "int8", "int32", "int32", "int32", "int32", "int32", "int32", "int32", "int32", "int32", "uint8", "int8", "int32", "int32", "int32", "int32", "int32", "int32", "int32", "uint8", "uint8", "int8", "int32", "int32", "int32", "int32", "int32", "int32", "int32", "int32", "int32", "uint8", "int8", "int32", "int32", "int32", "int32", "int32", "int32", "int32", "uint8", "uint8", "int8", "int32", "int32", "int32", "int32", "int32", "int32", "int32", "int32", "int32", "uint8", "uint8", "int8", "int32", "int32", "int32", "int32", "int32", "int32", "int32", "int32", "int32", "uint8", "int8", "int32", "int32", "int32", "int32", "int32", "int32", "int32", "uint8", "uint8", "int8", "int32", "int32", "int32", "int32", "int32", "int32", "int32", "int32", "int32", "uint8", "int8", "int32", "int32", "int32", "int32", "int32", "int32", "int32", "uint8", "uint8", "int8", "int32", "int32", "int32", "int32", "int32", "int32", "int32", "int32", "int32", "uint8", "int8", "int32", "int32", "int32", "int32", "int32", "int32", "int32", "uint8", "uint8", "int8", "int32", "int32", "int32", "int32", "int32", "int32", "int32", "int32", "int32", "uint8", "int8", "int32", "int32", "int32", "int32", "uint8", "uint8", "int8", "int32", "int32", "int32", "int32", "int32", "int32", "int32", "int32", "int32", "uint8", "int8", "int32", "int32", "int32", "int32", "int32", "int32", "int32", "uint8", "uint8", "int8", "int32", "int32", "int32", "int32", "int32", "int32", "int32", "int32", "int32", "uint8", "int8", "int32", "int32", "int32", "int32", "int32", "int32", "int32", "uint8", "uint8", "int8", "int32", "int32", "int32", "int32", "int32", "int32", "int32", "int32", "int32", "uint8", "int8", "int32", "int32", "int32", "int32", "int32", "int32", "int32", "uint8", "uint8", "int8", "int32", "int32", "int32", "int32", "int32", "int32", "int32", "int32", "int32", "uint8", "int8", "int32", "int32", "int32", "int32", "int32", "int32", "int32", "uint8", "uint8", "int8", "int32", "int32", "int32", "int32", "int32", "int32", "int32", "int32", "int32", "uint8", "uint8", "int8", "int32", "int32", "int32", "int32", "int32", "int32", "int32", "int32", "int32", "uint8", "int8", "int32", "int32", "int32", "int32", "int32", "int32", "int32", "uint8", "uint8", "int8", "int32", "int32", "int32", "int32", "int32", "int32", "int32", "int32", "int32", "uint8", "int8", "int32", "int32", "int32", "int32", "int32", "int32", "int32", "uint8", "uint8", "int8", "int32", "int32", "int32", "int32", "int32", "int32", "int32", "int32", "int32", "uint8", "int8", "int32", "int32", "int32", "int32", "int32", "int32", "int32", "uint8", "uint8", "int8", "int32", "int32", "int32", "int32", "int32", "int32", "int32", "int32", "int32", "uint8", "int8", "int32", "int32", "int32", "int32", "int32", "int32", "int32", "uint8", "uint8", "int8", "int32", "int32", "int32", "int32", "int32", "int32", "int32", "int32", "int32", "uint8", "int8", "int32", "int32", "int32", "int32", "int32", "int32", "int32", "uint8", "uint8", "int8", "int32", "int32", "int32", "int32", "int32", "int32", "int32", "int32", "int32", "uint8", "int8", "int32", "int32", "int32", "int32", "int32", "int32", "int32", "uint8", "uint8", "int8", "int32", "int32", "int32", "int32", "int32", "int32", "int32", "int32", "int32", "uint8", "int8", "int32", "int32", "int32", "int32", "int32", "int32", "int32", "uint8", "int8", "int32", "int32", "int32", "int32", "int32", "int32", "int32", "uint8", "uint8", "uint8", "int8", "int32", "int32", "int32", "int32", "int32", "int32", "uint8", "uint8", "int8", "int32", "int32", "int32", "int32", "int32", "int32", "int32", "int32", "int32", "uint8", "int8", "int32", "int32", "int32", "int32", "int32", "int32", "int32", "uint8", "uint8", "int8", "int32", "int32", "int32", "int32", "int32", "int32", "int32", "int32", "int32", "uint8", "int8", "int32", "int32", "int32", "int32", "int32", "int32", "int32", "uint8", "int8", "int32", "int32", "int32", "int32", "int32", "int32", "int32", "uint8", "uint8", "uint8", "int8", "int32", "int32", "int32", "int32", "int32", "int32", "uint8", "uint8", "int8", "int32", "int32", "int32", "int32", "int32", "int32", "int32", "int32", "int32", "uint8", "int8", "int32", "int32", "int32", "int32", "int32", "int32", "int32", "uint8", "uint8", "int8", "int32", "int32", "int32", "int32", "int32", "int32", "int32", "int32", "int32", "uint8", "int8", "int32", "int32", "int32", "int32", "int32", "int32", "int32", "uint8", "uint8", "int8", "int32", "int32", "int32", "int32", "int32", "int32", "int32", "int32", "int32", "uint8", "uint8", "int8", "int32", "int32", "int32", "int32", "int32", "uint8", "uint8", "uint8", "int8", "int32", "int32", "int32", "int32", "int32", "int32", "int32", "int32", "int32", "uint8", "uint8", "int8", "int32", "int32", "int32", "int32", "int32", "uint8", "uint8", "uint8", "int8", "int32", "int32", "int32", "int32", "int32", "int32", "int32", "int32", "int32", "uint8", "uint8", "int8", "int32", "int32", "int32", "int32", "int32", "uint8", "uint8"]], "shape": ["list_shape", [[1, 416, 416, 3], [1, 3, 418, 418], [1, 1, 418, 418, 3], [4, 1, 3, 3, 3, 8], [1, 1, 418, 418], [1, 1, 418, 418], [1, 1, 416, 416], [1, 1, 416, 416, 1], [1, 4, 1, 1, 8], [1], [1], [1, 4, 416, 416, 8], [1, 4, 417, 417, 8], [8, 4, 3, 3, 8, 8], [1, 8, 1, 1, 8], [1, 8, 1, 1, 8], [1], [1], [1, 8, 208, 208, 8], [4, 8, 1, 1, 8, 8], [1, 64, 208, 208], [1, 1, 208, 208], [1, 1, 208, 208, 1], [1, 4, 1, 1, 8], [1, 4, 1, 1, 8], [1], [1], [1, 4, 208, 208, 8], [1, 4, 210, 210, 8], [8, 4, 3, 3, 8, 8], [1, 32, 210, 210], [1, 1, 210, 210], [1, 1, 210, 210], [1, 1, 208, 208], [1, 1, 208, 208, 1], [1, 8, 1, 1, 8], [1, 8, 1, 1, 8], [1], [1], [1, 8, 208, 208, 8], [1, 8, 209, 209, 8], [16, 8, 3, 3, 8, 8], [1, 64, 209, 209], [1, 1, 209, 209], [1, 1, 209, 209], [1, 1, 104, 104], [1, 1, 104, 104, 1], [1, 16, 1, 1, 8], [1, 16, 1, 1, 8], [1], [1], [1, 16, 104, 104, 8], [8, 16, 1, 1, 8, 8], [1, 128, 104, 104], [1, 1, 104, 104], [1, 1, 104, 104, 1], [1, 8, 1, 1, 8], [1, 8, 1, 1, 8], [1], [1], [1, 8, 104, 104, 8], [1, 8, 106, 106, 8], [16, 8, 3, 3, 8, 8], [1, 64, 106, 106], [1, 1, 106, 106], [1, 1, 106, 106], [1, 1, 104, 104], [1, 1, 104, 104, 1], [1, 16, 1, 1, 8], [1, 16, 1, 1, 8], [1], [1], [1, 16, 104, 104, 8], [8, 16, 1, 1, 8, 8], [1, 128, 104, 104], [1, 1, 104, 104], [1, 1, 104, 104, 1], [1, 8, 1, 1, 8], [1, 8, 1, 1, 8], [1], [1], [1, 8, 104, 104, 8], [1, 8, 106, 106, 8], [16, 8, 3, 3, 8, 8], [1, 64, 106, 106], [1, 1, 106, 106], [1, 1, 106, 106], [1, 1, 104, 104], [1, 1, 104, 104, 1], [1, 16, 1, 1, 8], [1, 16, 1, 1, 8], [1], [1], [1, 16, 104, 104, 8], [1, 16, 105, 105, 8], [32, 16, 3, 3, 8, 8], [1, 128, 105, 105], [1, 1, 105, 105], [1, 1, 105, 105], [1, 1, 52, 52], [1, 1, 52, 52, 1], [1, 32, 1, 1, 8], [1, 32, 1, 1, 8], [1], [1], [1, 32, 52, 52, 8], [16, 32, 1, 1, 8, 8], [1, 256, 52, 52], [1, 1, 52, 52], [1, 1, 52, 52, 1], [1, 16, 1, 1, 8], [1, 16, 1, 1, 8], [1], [1], [1, 16, 52, 52, 8], [1, 16, 54, 54, 8], [32, 16, 3, 3, 8, 8], [1, 128, 54, 54], [1, 1, 54, 54], [1, 1, 54, 54], [1, 1, 52, 52], [1, 1, 52, 52, 1], [1, 32, 1, 1, 8], [1, 32, 1, 1, 8], [1], [1], [1, 32, 52, 52, 8], [16, 32, 1, 1, 8, 8], [1, 256, 52, 52], [1, 1, 52, 52], [1, 1, 52, 52, 1], [1, 16, 1, 1, 8], [1, 16, 1, 1, 8], [1], [1], [1, 16, 52, 52, 8], [1, 16, 54, 54, 8], [32, 16, 3, 3, 8, 8], [1, 128, 54, 54], [1, 1, 54, 54], [1, 1, 54, 54], [1, 1, 52, 52], [1, 1, 52, 52, 1], [1, 32, 1, 1, 8], [1, 32, 1, 1, 8], [1], [1], [1, 32, 52, 52, 8], [16, 32, 1, 1, 8, 8], [1, 256, 52, 52], [1, 1, 52, 52], [1, 1, 52, 52, 1], [1, 16, 1, 1, 8], [1, 16, 1, 1, 8], [1], [1], [1, 16, 52, 52, 8], [1, 16, 54, 54, 8], [32, 16, 3, 3, 8, 8], [1, 128, 54, 54], [1, 1, 54, 54], [1, 1, 54, 54], [1, 1, 52, 52], [1, 1, 52, 52, 1], [1, 32, 1, 1, 8], [1, 32, 1, 1, 8], [1], [1], [1, 32, 52, 52, 8], [16, 32, 1, 1, 8, 8], [1, 256, 52, 52], [1, 1, 52, 52], [1, 1, 52, 52, 1], [1, 16, 1, 1, 8], [1, 16, 1, 1, 8], [1], [1], [1, 16, 52, 52, 8], [1, 16, 54, 54, 8], [32, 16, 3, 3, 8, 8], [1, 128, 54, 54], [1, 1, 54, 54], [1, 1, 54, 54], [1, 1, 52, 52], [1, 1, 52, 52, 1], [1, 32, 1, 1, 8], [1, 32, 1, 1, 8], [1], [1], [1, 32, 52, 52, 8], [16, 32, 1, 1, 8, 8], [1, 256, 52, 52], [1, 1, 52, 52], [1, 1, 52, 52, 1], [1, 16, 1, 1, 8], [1, 16, 1, 1, 8], [1], [1], [1, 16, 52, 52, 8], [1, 16, 54, 54, 8], [32, 16, 3, 3, 8, 8], [1, 128, 54, 54], [1, 1, 54, 54], [1, 1, 54, 54], [1, 1, 52, 52], [1, 1, 52, 52, 1], [1, 32, 1, 1, 8], [1, 32, 1, 1, 8], [1], [1], [1, 32, 52, 52, 8], [16, 32, 1, 1, 8, 8], [1, 256, 52, 52], [1, 1, 52, 52], [1, 1, 52, 52, 1], [1, 16, 1, 1, 8], [1, 16, 1, 1, 8], [1], [1], [1, 16, 52, 52, 8], [1, 16, 54, 54, 8], [32, 16, 3, 3, 8, 8], [1, 128, 54, 54], [1, 1, 54, 54], [1, 1, 54, 54], [1, 1, 52, 52], [1, 1, 52, 52, 1], [1, 32, 1, 1, 8], [1, 32, 1, 1, 8], [1], [1], [1, 32, 52, 52, 8], [16, 32, 1, 1, 8, 8], [1, 256, 52, 52], [1, 1, 52, 52], [1, 1, 52, 52, 1], [1, 16, 1, 1, 8], [1, 16, 1, 1, 8], [1], [1], [1, 16, 52, 52, 8], [1, 16, 54, 54, 8], [32, 16, 3, 3, 8, 8], [1, 128, 54, 54], [1, 1, 54, 54], [1, 1, 54, 54], [1, 1, 52, 52], [1, 1, 52, 52, 1], [1, 32, 1, 1, 8], [1, 32, 1, 1, 8], [1], [1], [1, 32, 52, 52, 8], [16, 32, 1, 1, 8, 8], [1, 256, 52, 52], [1, 1, 52, 52], [1, 1, 52, 52, 1], [1, 16, 1, 1, 8], [1, 16, 1, 1, 8], [1], [1], [1, 16, 52, 52, 8], [1, 16, 54, 54, 8], [32, 16, 3, 3, 8, 8], [1, 128, 54, 54], [1, 1, 54, 54], [1, 1, 54, 54], [1, 1, 52, 52], [1, 1, 52, 52, 1], [1, 32, 1, 1, 8], [1, 32, 1, 1, 8], [1], [1], [1, 32, 52, 52, 8], [1, 32, 53, 53, 8], [64, 32, 3, 3, 8, 8], [1, 256, 53, 53], [1, 1, 53, 53], [1, 1, 53, 53], [1, 1, 26, 26], [1, 1, 26, 26, 1], [1, 64, 1, 1, 8], [1, 64, 1, 1, 8], [1], [1], [1, 64, 26, 26, 8], [32, 64, 1, 1, 8, 8], [1, 512, 26, 26], [1, 1, 26, 26], [1, 1, 26, 26, 1], [1, 32, 1, 1, 8], [1, 32, 1, 1, 8], [1], [1], [1, 32, 26, 26, 8], [1, 32, 28, 28, 8], [64, 32, 3, 3, 8, 8], [1, 256, 28, 28], [1, 1, 28, 28], [1, 1, 28, 28], [1, 1, 26, 26], [1, 1, 26, 26, 1], [1, 64, 1, 1, 8], [1, 64, 1, 1, 8], [1], [1], [1, 64, 26, 26, 8], [32, 64, 1, 1, 8, 8], [1, 512, 26, 26], [1, 1, 26, 26], [1, 1, 26, 26, 1], [1, 32, 1, 1, 8], [1, 32, 1, 1, 8], [1], [1], [1, 32, 26, 26, 8], [1, 32, 28, 28, 8], [64, 32, 3, 3, 8, 8], [1, 256, 28, 28], [1, 1, 28, 28], [1, 1, 28, 28], [1, 1, 26, 26], [1, 1, 26, 26, 1], [1, 64, 1, 1, 8], [1, 64, 1, 1, 8], [1], [1], [1, 64, 26, 26, 8], [32, 64, 1, 1, 8, 8], [1, 512, 26, 26], [1, 1, 26, 26], [1, 1, 26, 26, 1], [1, 32, 1, 1, 8], [1, 32, 1, 1, 8], [1], [1], [1, 32, 26, 26, 8], [1, 32, 28, 28, 8], [64, 32, 3, 3, 8, 8], [1, 256, 28, 28], [1, 1, 28, 28], [1, 1, 28, 28], [1, 1, 26, 26], [1, 1, 26, 26, 1], [1, 64, 1, 1, 8], [1, 64, 1, 1, 8], [1], [1], [1, 64, 26, 26, 8], [32, 64, 1, 1, 8, 8], [1, 32, 1, 1, 8], [1, 32, 1, 1, 8], [1], [1], [1, 32, 26, 26, 8], [1, 32, 28, 28, 8], [64, 32, 3, 3, 8, 8], [1, 256, 28, 28], [1, 1, 28, 28], [1, 1, 28, 28], [1, 1, 26, 26], [1, 1, 26, 26, 1], [1, 64, 1, 1, 8], [1, 64, 1, 1, 8], [1], [1], [1, 64, 26, 26, 8], [32, 64, 1, 1, 8, 8], [1, 512, 26, 26], [1, 1, 26, 26], [1, 1, 26, 26, 1], [1, 32, 1, 1, 8], [1, 32, 1, 1, 8], [1], [1], [1, 32, 26, 26, 8], [1, 32, 28, 28, 8], [64, 32, 3, 3, 8, 8], [1, 256, 28, 28], [1, 1, 28, 28], [1, 1, 28, 28], [1, 1, 26, 26], [1, 1, 26, 26, 1], [1, 64, 1, 1, 8], [1, 64, 1, 1, 8], [1], [1], [1, 64, 26, 26, 8], [32, 64, 1, 1, 8, 8], [1, 512, 26, 26], [1, 1, 26, 26], [1, 1, 26, 26, 1], [1, 32, 1, 1, 8], [1, 32, 1, 1, 8], [1], [1], [1, 32, 26, 26, 8], [1, 32, 28, 28, 8], [64, 32, 3, 3, 8, 8], [1, 256, 28, 28], [1, 1, 28, 28], [1, 1, 28, 28], [1, 1, 26, 26], [1, 1, 26, 26, 1], [1, 64, 1, 1, 8], [1, 64, 1, 1, 8], [1], [1], [1, 64, 26, 26, 8], [32, 64, 1, 1, 8, 8], [1, 512, 26, 26], [1, 1, 26, 26], [1, 1, 26, 26, 1], [1, 32, 1, 1, 8], [1, 32, 1, 1, 8], [1], [1], [1, 32, 26, 26, 8], [1, 32, 28, 28, 8], [64, 32, 3, 3, 8, 8], [1, 256, 28, 28], [1, 1, 28, 28], [1, 1, 28, 28], [1, 1, 26, 26], [1, 1, 26, 26, 1], [1, 64, 1, 1, 8], [1, 64, 1, 1, 8], [1], [1], [1, 64, 26, 26, 8], [32, 64, 1, 1, 8, 8], [1, 512, 26, 26], [1, 1, 26, 26], [1, 1, 26, 26, 1], [1, 32, 1, 1, 8], [1, 32, 1, 1, 8], [1], [1], [1, 32, 26, 26, 8], [1, 32, 28, 28, 8], [64, 32, 3, 3, 8, 8], [1, 256, 28, 28], [1, 1, 28, 28], [1, 1, 28, 28], [1, 1, 26, 26], [1, 1, 26, 26, 1], [1, 64, 1, 1, 8], [1, 64, 1, 1, 8], [1], [1], [1, 64, 26, 26, 8], [1, 64, 27, 27, 8], [128, 64, 3, 3, 8, 8], [1, 512, 27, 27], [1, 1, 27, 27], [1, 1, 27, 27], [1, 1, 13, 13], [1, 1, 13, 13, 1], [1, 128, 1, 1, 8], [1, 128, 1, 1, 8], [1], [1], [1, 128, 13, 13, 8], [64, 128, 1, 1, 8, 8], [1, 1024, 13, 13], [1, 1, 13, 13], [1, 1, 13, 13, 1], [1, 64, 1, 1, 8], [1, 64, 1, 1, 8], [1], [1], [1, 64, 13, 13, 8], [1, 64, 15, 15, 8], [128, 64, 3, 3, 8, 8], [1, 512, 15, 15], [1, 1, 15, 15], [1, 1, 15, 15], [1, 1, 13, 13], [1, 1, 13, 13, 1], [1, 128, 1, 1, 8], [1, 128, 1, 1, 8], [1], [1], [1, 128, 13, 13, 8], [64, 128, 1, 1, 8, 8], [1, 1024, 13, 13], [1, 1, 13, 13], [1, 1, 13, 13, 1], [1, 64, 1, 1, 8], [1, 64, 1, 1, 8], [1], [1], [1, 64, 13, 13, 8], [1, 64, 15, 15, 8], [128, 64, 3, 3, 8, 8], [1, 512, 15, 15], [1, 1, 15, 15], [1, 1, 15, 15], [1, 1, 13, 13], [1, 1, 13, 13, 1], [1, 128, 1, 1, 8], [1, 128, 1, 1, 8], [1], [1], [1, 128, 13, 13, 8], [64, 128, 1, 1, 8, 8], [1, 1024, 13, 13], [1, 1, 13, 13], [1, 1, 13, 13, 1], [1, 64, 1, 1, 8], [1, 64, 1, 1, 8], [1], [1], [1, 64, 13, 13, 8], [1, 64, 15, 15, 8], [128, 64, 3, 3, 8, 8], [1, 512, 15, 15], [1, 1, 15, 15], [1, 1, 15, 15], [1, 1, 13, 13], [1, 1, 13, 13, 1], [1, 128, 1, 1, 8], [1, 128, 1, 1, 8], [1], [1], [1, 128, 13, 13, 8], [64, 128, 1, 1, 8, 8], [1, 1024, 13, 13], [1, 1, 13, 13], [1, 1, 13, 13, 1], [1, 64, 1, 1, 8], [1, 64, 1, 1, 8], [1], [1], [1, 64, 13, 13, 8], [1, 64, 15, 15, 8], [128, 64, 3, 3, 8, 8], [1, 512, 15, 15], [1, 1, 15, 15], [1, 1, 15, 15], [1, 1, 13, 13], [1, 1, 13, 13, 1], [1, 128, 1, 1, 8], [1, 128, 1, 1, 8], [1], [1], [1, 128, 13, 13, 8], [64, 128, 1, 1, 8, 8], [1, 1024, 13, 13], [1, 1, 13, 13], [1, 1, 13, 13, 1], [1, 64, 1, 1, 8], [1, 64, 1, 1, 8], [1], [1], [1, 64, 13, 13, 8], [1, 64, 15, 15, 8], [128, 64, 3, 3, 8, 8], [1, 512, 15, 15], [1, 1, 15, 15], [1, 1, 15, 15], [1, 1, 13, 13], [1, 1, 13, 13, 1], [1, 128, 1, 1, 8], [1, 128, 1, 1, 8], [1], [1], [1, 128, 13, 13, 8], [64, 128, 1, 1, 8, 8], [1, 1024, 13, 13], [1, 1, 13, 13], [1, 1, 13, 13, 1], [1, 64, 1, 1, 8], [1, 64, 1, 1, 8], [1], [1], [1, 64, 13, 13, 8], [1, 64, 15, 15, 8], [128, 64, 3, 3, 8, 8], [1, 512, 15, 15], [1, 1, 15, 15], [1, 1, 15, 15], [1, 1, 13, 13], [1, 1, 13, 13, 1], [1, 128, 1, 1, 8], [1, 128, 1, 1, 8], [1], [1], [1, 128, 13, 13, 8], [64, 128, 1, 1, 8, 8], [1, 1024, 13, 13], [1, 1, 13, 13], [1, 1, 13, 13, 1], [1, 64, 1, 1, 8], [1, 64, 1, 1, 8], [1], [1], [1, 64, 13, 13, 8], [32, 64, 1, 1, 8, 8], [1, 512, 13, 13], [1, 1, 13, 13], [1, 1, 13, 13, 1], [1, 32, 1, 1, 8], [1, 32, 1, 1, 8], [1], [1], [1, 32, 13, 13, 8], [1, 768, 26, 26], [1, 96, 26, 26, 8], [32, 96, 1, 1, 8, 8], [1, 1, 26, 26], [1, 1, 26, 26, 1], [1, 32, 1, 1, 8], [1, 32, 1, 1, 8], [1], [1], [1, 32, 26, 26, 8], [1, 32, 28, 28, 8], [64, 32, 3, 3, 8, 8], [1, 256, 28, 28], [1, 1, 28, 28], [1, 1, 28, 28], [1, 1, 26, 26], [1, 1, 26, 26, 1], [1, 64, 1, 1, 8], [1, 64, 1, 1, 8], [1], [1], [1, 64, 26, 26, 8], [32, 64, 1, 1, 8, 8], [1, 512, 26, 26], [1, 1, 26, 26], [1, 1, 26, 26, 1], [1, 32, 1, 1, 8], [1, 32, 1, 1, 8], [1], [1], [1, 32, 26, 26, 8], [1, 32, 28, 28, 8], [64, 32, 3, 3, 8, 8], [1, 256, 28, 28], [1, 1, 28, 28], [1, 1, 28, 28], [1, 1, 26, 26], [1, 1, 26, 26, 1], [1, 64, 1, 1, 8], [1, 64, 1, 1, 8], [1], [1], [1, 64, 26, 26, 8], [32, 64, 1, 1, 8, 8], [1, 512, 26, 26], [1, 1, 26, 26], [1, 1, 26, 26, 1], [1, 32, 1, 1, 8], [1, 32, 1, 1, 8], [1], [1], [1, 32, 26, 26, 8], [16, 32, 1, 1, 8, 8], [1, 256, 26, 26], [1, 1, 26, 26], [1, 1, 26, 26, 1], [1, 16, 1, 1, 8], [1, 16, 1, 1, 8], [1], [1], [1, 16, 26, 26, 8], [1, 384, 52, 52], [1, 48, 52, 52, 8], [16, 48, 1, 1, 8, 8], [1, 1, 52, 52], [1, 1, 52, 52, 1], [1, 16, 1, 1, 8], [1, 16, 1, 1, 8], [1], [1], [1, 16, 52, 52, 8], [1, 16, 54, 54, 8], [32, 16, 3, 3, 8, 8], [1, 128, 54, 54], [1, 1, 54, 54], [1, 1, 54, 54], [1, 1, 52, 52], [1, 1, 52, 52, 1], [1, 32, 1, 1, 8], [1, 32, 1, 1, 8], [1], [1], [1, 32, 52, 52, 8], [16, 32, 1, 1, 8, 8], [1, 256, 52, 52], [1, 1, 52, 52], [1, 1, 52, 52, 1], [1, 16, 1, 1, 8], [1, 16, 1, 1, 8], [1], [1], [1, 16, 52, 52, 8], [1, 16, 54, 54, 8], [32, 16, 3, 3, 8, 8], [1, 128, 54, 54], [1, 1, 54, 54], [1, 1, 54, 54], [1, 1, 52, 52], [1, 1, 52, 52, 1], [1, 32, 1, 1, 8], [1, 32, 1, 1, 8], [1], [1], [1, 32, 52, 52, 8], [16, 32, 1, 1, 8, 8], [1, 256, 52, 52], [1, 1, 52, 52], [1, 1, 52, 52, 1], [1, 16, 1, 1, 8], [1, 16, 1, 1, 8], [1], [1], [1, 16, 52, 52, 8], [1, 16, 54, 54, 8], [32, 16, 3, 3, 8, 8], [1, 128, 54, 54], [1, 1, 54, 54], [1, 1, 54, 54], [1, 1, 52, 52], [1, 1, 52, 52, 1], [1, 32, 1, 1, 8], [1, 32, 1, 1, 8], [1], [1], [1, 32, 52, 52, 8], [1, 64, 52, 52, 4], [51, 64, 1, 1, 4, 5], [1, 256, 52, 52], [1, 1, 52, 52], [1, 1, 52, 52, 1], [1, 51, 1, 1, 5], [1, 51, 1, 1, 5], [1, 51, 52, 52, 5], [1, 52, 52, 255], [1, 32, 28, 28, 8], [64, 32, 3, 3, 8, 8], [1, 256, 28, 28], [1, 1, 28, 28], [1, 1, 28, 28], [1, 1, 26, 26], [1, 1, 26, 26, 1], [1, 64, 1, 1, 8], [1, 64, 1, 1, 8], [1], [1], [1, 64, 26, 26, 8], [1, 128, 26, 26, 4], [51, 128, 1, 1, 4, 5], [1, 512, 26, 26], [1, 1, 26, 26], [1, 1, 26, 26, 1], [1, 51, 1, 1, 5], [1, 51, 1, 1, 5], [1, 51, 26, 26, 5], [1, 26, 26, 255], [1, 64, 15, 15, 8], [128, 64, 3, 3, 8, 8], [1, 512, 15, 15], [1, 1, 15, 15], [1, 1, 15, 15], [1, 1, 13, 13], [1, 1, 13, 13, 1], [1, 128, 1, 1, 8], [1, 128, 1, 1, 8], [1], [1], [1, 128, 13, 13, 8], [1, 256, 13, 13, 4], [51, 256, 1, 1, 4, 5], [1, 1024, 13, 13], [1, 1, 13, 13], [1, 1, 13, 13, 1], [1, 51, 1, 1, 5], [1, 51, 1, 1, 5], [1, 51, 13, 13, 5], [1, 13, 13, 255]]], "storage_id": ["list_int", [0, 1, 2, 3, 4, 1, 4, 1, 5, 6, 7, 4, 1, 8, 9, 10, 11, 12, 4, 13, 1, 2, 14, 15, 16, 17, 18, 1, 2, 19, 1, 14, 20, 14, 20, 21, 22, 23, 24, 1, 4, 25, 1, 14, 20, 14, 20, 26, 27, 28, 29, 2, 30, 4, 14, 20, 31, 32, 33, 34, 4, 1, 35, 4, 14, 20, 14, 20, 36, 37, 38, 39, 4, 40, 1, 14, 20, 41, 42, 43, 44, 2, 1, 45, 2, 14, 20, 14, 20, 46, 47, 48, 49, 2, 4, 50, 1, 14, 20, 51, 52, 53, 54, 55, 56, 2, 57, 4, 51, 52, 58, 59, 60, 61, 4, 20, 62, 4, 14, 52, 51, 52, 63, 64, 65, 66, 4, 67, 2, 51, 52, 68, 69, 70, 71, 20, 2, 72, 1, 52, 14, 51, 52, 73, 74, 75, 76, 20, 77, 2, 51, 52, 78, 79, 80, 81, 2, 4, 82, 2, 52, 14, 51, 52, 83, 84, 85, 86, 2, 87, 4, 51, 52, 88, 89, 90, 91, 20, 4, 92, 1, 52, 14, 51, 52, 93, 94, 95, 96, 20, 97, 2, 51, 52, 98, 99, 100, 101, 2, 4, 102, 2, 52, 14, 51, 52, 103, 104, 105, 106, 2, 107, 4, 51, 52, 108, 109, 110, 111, 20, 4, 112, 1, 52, 14, 51, 52, 113, 114, 115, 116, 20, 117, 2, 51, 52, 118, 119, 120, 121, 2, 4, 122, 2, 52, 14, 51, 52, 123, 124, 125, 126, 2, 127, 4, 51, 52, 128, 129, 130, 131, 20, 4, 132, 1, 52, 14, 51, 52, 133, 134, 135, 136, 20, 2, 137, 4, 52, 14, 51, 52, 138, 139, 140, 141, 4, 142, 2, 51, 52, 143, 144, 145, 146, 14, 2, 147, 1, 51, 52, 51, 52, 148, 149, 150, 151, 14, 152, 2, 51, 52, 153, 154, 155, 156, 51, 2, 157, 4, 52, 158, 52, 158, 159, 160, 161, 162, 4, 163, 2, 158, 52, 164, 165, 166, 167, 51, 14, 168, 2, 158, 52, 158, 52, 169, 170, 171, 172, 2, 173, 174, 175, 176, 177, 51, 14, 178, 4, 158, 52, 158, 52, 179, 180, 181, 182, 4, 183, 2, 158, 52, 184, 185, 186, 187, 51, 14, 188, 2, 158, 52, 158, 52, 189, 190, 191, 192, 2, 193, 4, 158, 52, 194, 195, 196, 197, 51, 14, 198, 4, 158, 52, 158, 52, 199, 200, 201, 202, 4, 203, 2, 158, 52, 204, 205, 206, 207, 51, 14, 208, 2, 158, 52, 158, 52, 209, 210, 211, 212, 2, 213, 4, 158, 52, 214, 215, 216, 217, 51, 14, 218, 4, 158, 52, 158, 52, 219, 220, 221, 222, 4, 2, 223, 1, 158, 52, 158, 224, 225, 226, 227, 228, 51, 229, 2, 224, 158, 230, 231, 232, 233, 14, 52, 234, 2, 158, 224, 158, 224, 235, 236, 237, 238, 14, 239, 2, 224, 158, 240, 241, 242, 243, 52, 51, 244, 2, 224, 158, 224, 158, 245, 246, 247, 248, 52, 249, 2, 224, 158, 250, 251, 252, 253, 51, 14, 254, 2, 224, 158, 224, 158, 255, 256, 257, 258, 51, 259, 2, 224, 158, 260, 261, 262, 263, 52, 14, 264, 2, 224, 158, 224, 158, 265, 266, 267, 268, 52, 269, 2, 224, 158, 270, 271, 272, 273, 51, 52, 274, 2, 224, 158, 224, 158, 275, 276, 277, 278, 51, 279, 2, 224, 158, 280, 281, 282, 283, 52, 51, 284, 2, 224, 158, 224, 158, 285, 286, 287, 288, 52, 289, 2, 224, 158, 290, 291, 292, 293, 51, 294, 14, 224, 158, 295, 296, 297, 298, 52, 2, 4, 299, 158, 224, 300, 301, 302, 303, 52, 14, 304, 2, 158, 224, 158, 224, 305, 306, 307, 308, 2, 309, 4, 158, 224, 310, 311, 312, 313, 52, 14, 314, 2, 158, 224, 158, 224, 315, 316, 317, 318, 2, 319, 4, 158, 224, 320, 321, 322, 323, 52, 324, 2, 158, 224, 325, 326, 327, 328, 14, 2, 4, 329, 224, 158, 330, 331, 332, 333, 14, 20, 334, 2, 158, 224, 158, 224, 335, 336, 337, 338, 2, 339, 4, 158, 224, 340, 341, 342, 343, 14, 20, 344, 2, 158, 224, 158, 224, 345, 346, 347, 348, 2, 349, 4, 158, 224, 350, 351, 352, 353, 14, 20, 354, 2, 158, 224, 158, 224, 355, 356, 357, 358, 2, 20, 359, 4, 158, 224, 360, 361, 2, 20, 14, 362, 2, 158, 224, 158, 224, 363, 364, 365, 366, 2, 14, 367, 4, 158, 224, 368, 369, 52, 14, 52, 370, 2, 158, 224, 371, 372, 373, 374, 375, 376, 51, 52, 377, 2, 371, 372, 378, 379, 51, 52]]}, "node_row_ptr": [0, 1, 2, 3, 4, 5, 6, 7, 8, 9, 10, 11, 12, 13, 14, 15, 16, 17, 18, 19, 20, 21, 22, 23, 24, 25, 26, 27, 28, 29, 30, 31, 32, 33, 34, 35, 36, 37, 38, 39, 40, 41, 42, 43, 44, 45, 46, 47, 48, 49, 50, 51, 52, 53, 54, 55, 56, 57, 58, 59, 60, 61, 62, 63, 64, 65, 66, 67, 68, 69, 70, 71, 72, 73, 74, 75, 76, 77, 78, 79, 80, 81, 82, 83, 84, 85, 86, 87, 88, 89, 90, 91, 92, 93, 94, 95, 96, 97, 98, 99, 100, 101, 102, 103, 104, 105, 106, 107, 108, 109, 110, 111, 112, 113, 114, 115, 116, 117, 118, 119, 120, 121, 122, 123, 124, 125, 126, 127, 128, 129, 130, 131, 132, 133, 134, 135, 136, 137, 138, 139, 140, 141, 142, 143, 144, 145, 146, 147, 148, 149, 150, 151, 152, 153, 154, 155, 156, 157, 158, 159, 160, 161, 162, 163, 164, 165, 166, 167, 168, 169, 170, 171, 172, 173, 174, 175, 176, 177, 178, 179, 180, 181, 182, 183, 184, 185, 186, 187, 188, 189, 190, 191, 192, 193, 194, 195, 196, 197, 198, 199, 200, 201, 202, 203, 204, 205, 206, 207, 208, 209, 210, 211, 212, 213, 214, 215, 216, 217, 218, 219, 220, 221, 222, 223, 224, 225, 226, 227, 228, 229, 230, 231, 232, 233, 234, 235, 236, 237, 238, 239, 240, 241, 242, 243, 244, 245, 246, 247, 248, 249, 250, 251, 252, 253, 254, 255, 256, 257, 258, 259, 260, 261, 262, 263, 264, 265, 266, 267, 268, 269, 270, 271, 272, 273, 274, 275, 276, 277, 278, 279, 280, 281, 282, 283, 284, 285, 286, 287, 288, 289, 290, 291, 292, 293, 294, 295, 296, 297, 298, 299, 300, 301, 302, 303, 304, 305, 306, 307, 308, 309, 310, 311, 312, 313, 314, 315, 316, 317, 318, 319, 320, 321, 322, 323, 324, 325, 326, 327, 328, 329, 330, 331, 332, 333, 334, 335, 336, 337, 338, 339, 340, 341, 342, 343, 344, 345, 346, 347, 348, 349, 350, 351, 352, 353, 354, 355, 356, 357, 358, 359, 360, 361, 362, 363, 364, 365, 366, 367, 368, 369, 370, 371, 372, 373, 374, 375, 376, 377, 378, 379, 380, 381, 382, 383, 384, 385, 386, 387, 388, 389, 390, 391, 392, 393, 394, 395, 396, 397, 398, 399, 400, 401, 402, 403, 404, 405, 406, 407, 408, 409, 410, 411, 412, 413, 414, 415, 416, 417, 418, 419, 420, 421, 422, 423, 424, 425, 426, 427, 428, 429, 430, 431, 432, 433, 434, 435, 436, 437, 438, 439, 440, 441, 442, 443, 444, 445, 446, 447, 448, 449, 450, 451, 452, 453, 454, 455, 456, 457, 458, 459, 460, 461, 462, 463, 464, 465, 466, 467, 468, 469, 470, 471, 472, 473, 474, 475, 476, 477, 478, 479, 480, 481, 482, 483, 484, 485, 486, 487, 488, 489, 490, 491, 492, 493, 494, 495, 496, 497, 498, 499, 500, 501, 502, 503, 504, 505, 506, 507, 508, 509, 510, 511, 512, 513, 514, 515, 516, 517, 518, 519, 520, 521, 522, 523, 524, 525, 526, 527, 528, 529, 530, 531, 532, 533, 534, 535, 536, 537, 538, 539, 540, 541, 542, 543, 544, 545, 546, 547, 548, 549, 550, 551, 552, 553, 554, 555, 556, 557, 558, 559, 560, 561, 562, 563, 564, 565, 566, 567, 568, 569, 570, 571, 572, 573, 574, 575, 576, 577, 578, 579, 580, 581, 582, 583, 584, 585, 586, 587, 588, 589, 590, 591, 592, 593, 594, 595, 596, 597, 598, 599, 600, 601, 602, 603, 604, 605, 606, 607, 608, 609, 610, 611, 612, 613, 614, 615, 616, 617, 618, 619, 620, 621, 622, 623, 624, 625, 626, 627, 628, 629, 630, 631, 632, 633, 634, 635, 636, 637, 638, 639, 640, 641, 642, 643, 644, 645, 646, 647, 648, 649, 650, 651, 652, 653, 654, 655, 656, 657, 658, 659, 660, 661, 662, 663, 664, 665, 666, 667, 668, 669, 670, 671, 672, 673, 674, 675, 676, 677, 678, 679, 680, 681, 682, 683, 684, 685, 686, 687, 688, 689, 690, 691, 692, 693, 694, 695, 696, 697, 698, 699, 700, 701, 702, 703, 704, 705, 706, 707, 708, 709, 710, 711, 712, 713, 714, 715, 716, 717, 718, 719, 720, 721, 722, 723, 724, 725, 726, 727, 728, 729, 730, 731, 732, 733, 734, 735, 736, 737, 738, 739, 740, 741, 742, 743, 744, 745, 746, 747, 748, 749, 750, 751, 752, 753, 754, 755, 756, 757, 758, 759, 760, 761, 762, 763, 764, 765, 766, 767, 768, 769, 770, 771, 772, 773, 774, 775, 776, 777, 778, 779, 780, 781, 782, 783], "leip": {"precision": "float32"}}
